agentA2C_Critic_Trained_Model.pth (torch, 22407 bytes, 6 tensors)

fc1.weight f4 [64, 8]
000000 b0 e4 9b bd 43 9b 93 3f ba 77 a6 3e af 85 6e bf
       -0.07611978 1.1531757 0.3251322 -0.93172735
000010 9b 84 82 be e3 f4 ba 3e dd 6e e8 3e 62 66 68 3e
       -0.25491795 0.3651496 0.45397082 0.22695306
000020 a6 a6 82 3e 05 ad 20 be e4 24 51 3d a8 aa d4 be
       0.25517768 -0.15691002 0.051060572 -0.4153645
000030 32 b2 6a be 03 ee f8 be 09 51 0c 3f cc 86 29 3f
       -0.22919539 -0.4861909 0.5481115 0.6622131
000040 36 08 18 be 7a 1e 98 3f 7c 5f 7e 3d 50 db 67 bf
       -0.14846882 1.1884301 0.06210278 -0.9056902
000050 2a 34 64 3e f3 14 9c be 1a 11 0c 3f c4 36 b3 3e
       0.22285524 -0.30484733 0.54713595 0.3500272
000060 1e 06 82 3e 80 6d 8e 3f f6 68 bc 3e 7c 00 63 bf
       0.25395292 1.1127167 0.3679883 -0.88672614
000070 81 dd 43 3e 78 63 bd be 1a 52 15 3e f5 4e 03 3f
       0.19127466 -0.3698995 0.145821 0.51292354
000080 84 20 a8 be 6a 04 4d 3f 74 f3 6e 3e fd e3 44 be
       -0.32837307 0.8008486 0.23335057 -0.19227596
000090 20 bf 9b 3e 8d 0a 52 3e cb bd 87 3d b1 15 60 3c
       0.30419254 0.20511837 0.06627997 0.013677047
0000a0 d1 4e 7a be 9b ac 48 3f 92 63 4c 3d 11 e7 72 bf
       -0.24444129 0.78388375 0.049899645 -0.9488383
0000b0 70 72 1e be 8d 20 f3 3d 1c c8 ae 3e 28 b0 fc 3e
       -0.15473342 0.11871443 0.34137046 0.49353147
0000c0 f7 2e bb 3e 7e 09 5f 3f 49 2a cb 3d ed 86 c4 be
       0.3655927 0.8712386 0.09920175 -0.3838419
0000d0 c7 0e 80 bd dc b5 45 be cd 66 12 3f b9 02 0f 3f
       -0.062528186 -0.19307655 0.5718811 0.5586353
0000e0 ed e3 06 3d df 71 d1 be d1 0d b9 3e a2 f1 28 3c
       0.03293221 -0.4090719 0.36143354 0.010311516
0000f0 2e 14 88 be 84 55 7c 3e 47 28 0c 3e e0 6b ef 3e
       -0.26577896 0.24641997 0.1368724 0.4676199
000100 7c 86 30 3e 18 0d 83 3f 7b ab 95 3e 48 83 9e bd
       0.17238802 1.0238371 0.29232392 -0.07739884
000110 7d e2 76 3e fe 18 73 3e bb ab 0b be 76 83 c8 3e
       0.24109836 0.23740003 -0.13639729 0.39162797
000120 99 b0 a1 be 16 fa a1 be 39 80 31 bc bc 07 5d be
       -0.31580046 -0.31636113 -0.010833793 -0.21584982
000130 1e 2e b8 3e d7 e0 a6 3e f6 0c a0 3e d3 ad dd 3e
       0.35972685 0.32593414 0.31259888 0.4329668
000140 9f 5f 67 bd 6f 30 36 3f 99 99 63 be 14 57 2a bf
       -0.056487676 0.71167654 -0.22226562 -0.6653912
000150 31 55 8e be f3 ed 0f be a2 1d 35 bc 9b e0 d6 3e
       -0.2779937 -0.14055614 -0.011054428 0.41968235
000160 81 e5 7c be 7d 42 d6 3c 0f b1 91 be 1e 51 5f 3d
       -0.24696924 0.026154751 -0.28455397 0.05452072
000170 cc da ea 3e 6e cb 1f bc 03 cd ac 3e f9 9f 10 3e
       0.45870054 -0.009753091 0.33750162 0.14123525
000180 cf 10 c2 be a3 92 7d be f9 f1 66 be 5a 76 a4 3e
       -0.3790345 -0.24762969 -0.22553243 0.32121545
000190 e7 fa 3d 3e 63 b5 ce 3d 9b a7 f9 3e a7 89 27 bd
       0.18552743 0.100931905 0.48760685 -0.04090276
0001a0 f6 3c 0a 3e 1c ff a0 3f 04 68 9c be 18 c4 ec be
       0.13499817 1.2577853 -0.30548108 -0.46243358
0001b0 30 6b c1 3d 3b 14 8d 3e 86 fa ac be c4 41 44 bc
       0.094442725 0.27554497 -0.33784884 -0.01197857
0001c0 a2 e3 8a 3e 84 03 71 be 73 c0 fd 3d bd 7c 94 bd
       0.27126795 -0.23536497 0.123902224 -0.072503544
0001d0 b1 2a 02 be 3d c3 f0 3e 78 72 8e 3e f9 1b 71 3e
       -0.12711598 0.47023955 0.27821708 0.23545827
0001e0 aa 37 fb 3e ed 19 a1 be 9c 20 d7 3e 38 76 60 3e
       0.49065906 -0.31465092 0.42017066 0.21920097
0001f0 f9 54 58 be f1 88 17 be b9 b6 3b 3d 36 aa 27 3f
       -0.21126164 -0.14798333 0.045828555 0.65494096
000200 d5 47 96 be 07 20 d3 bd 5b 4a bd be e3 90 b0 bd
       -0.29351678 -0.10308843 -0.3697079 -0.08621385
000210 9b a6 bd 3e 4d 6d 5c 3d c7 03 e5 3e 6a 75 e0 3e
       0.37041172 0.053815175 0.44729444 0.4383958
000220 f9 01 43 3e 7e 5b bb be 78 6d 47 3d 43 9c 2e 3e
       0.19043721 -0.3659324 0.048688382 0.17051797
000230 ae 80 19 be 75 80 95 bd ef 2a fa 3e ea c4 08 3f
       -0.14990494 -0.07299892 0.4886088 0.53425467
000240 92 f2 36 be 46 82 6f be e6 b0 61 be 36 e2 4f bc
       -0.1786597 -0.23389539 -0.22040138 -0.01268821
000250 b7 ba f1 bd 18 3e e2 3e c4 a9 59 3e bd 73 c5 3e
       -0.11803191 0.44188 0.21256167 0.38564864
000260 8a 31 f4 3e 6f 3f 66 be a0 71 05 be 83 0f da bc
       0.47694045 -0.22485135 -0.13031626 -0.026618725
000270 12 69 86 be ce 12 58 3e 6c 8d ea 3e 21 b6 2e bc
       -0.26252037 0.21100923 0.4581102 -0.01066354
000280 d4 c5 0d 3e 9a 0f d2 be dd cc c7 3e 51 44 2a be
       0.13844997 -0.41027528 0.39023486 -0.16627623
000290 a4 70 9c be 60 e4 01 bf de 8d 43 bd 0b da fe 3e
       -0.30554688 -0.507391 -0.047742717 0.4977573
0002a0 fe 9a 32 3e 79 8a 0e bf c6 72 82 3e a5 2e 2b be
       0.17441937 -0.5568004 0.2547819 -0.16717012
0002b0 c4 72 a7 be 09 3e d6 bd 15 e7 24 3e d5 77 b3 3e
       -0.32704747 -0.10461051 0.16103776 0.35052362
0002c0 62 41 b5 bd 31 a8 78 3f 37 1a 1f 3e f9 72 de be
       -0.088503614 0.9713164 0.15537344 -0.43447092
0002d0 b3 c6 8d 3e 28 c5 a7 be a0 96 ae 3e 4f 06 5f 3e
       0.27690658 -0.32767606 0.34099293 0.2177975
0002e0 b0 e4 d8 3e f5 1c 52 be 93 62 e3 3d 65 0e 79 be
       0.42361975 -0.20518859 0.11102786 -0.24321897
0002f0 9d d0 54 3e 82 f6 d9 3e 61 82 13 3f 6c 8b 85 bc
       0.20782705 0.42570883 0.5762082 -0.016301833
000300 4c 8b 93 bd 44 69 19 3d 29 0f 67 3c 8b 02 01 3e
       -0.07204303 0.037453905 0.014102736 0.12598626
000310 de 1a a6 be 6a c4 99 bc bc 2f 24 be f8 79 e9 bd
       -0.32442373 -0.018770415 -0.16033834 -0.11400217
000320 da 98 dc bd 8f 05 77 3d c1 dc 5c be 39 fe 9f 3e
       -0.107713416 0.060308035 -0.21568586 0.31248644
000330 21 10 b0 3e fb e9 89 3d a2 55 9a bd 65 8c ef bd
       0.34387305 0.06734081 -0.075358644 -0.116967
000340 11 ae 81 3d 3a a7 94 3f 0b 97 3a 3e bd 65 76 bf
       0.06332029 1.1613533 0.18221681 -0.9624899
000350 40 c2 83 be c4 74 4b be 23 5e 5e 3e 01 a9 9c 3e
       -0.25734138 -0.19868761 0.21715598 0.3059769
000360 29 db 4d be 27 70 81 3f b8 c7 18 be bf 1c 60 bf
       -0.20103134 1.0112351 -0.14919937 -0.87543863
000370 40 88 74 3e 2e 34 0f 3e a3 d0 cc 3e a8 37 85 3e
       0.238801 0.13984749 0.40002927 0.26019025
000380 e0 a3 c4 be c4 29 85 be c3 79 a6 be 78 c6 98 3c
       -0.38406277 -0.26008427 -0.32514772 0.018649325
000390 21 11 48 3d cc 61 ab 3e db 32 b5 3e d1 d7 0d 3f
       0.04884446 0.3347305 0.35390362 0.55407435
0003a0 e9 e6 80 3e 00 60 70 3f d1 69 86 bd 0a 04 83 be
       0.2517617 0.93896484 -0.06563152 -0.2558902
0003b0 aa 03 62 3e 60 ff b9 be 41 20 ed 3e 65 86 4e 3e
       0.2207171 -0.36327648 0.4631367 0.20168455
0003c0 9d 2a b1 3d 41 c5 6a 3f 77 9e 7e 3e 1c 51 48 bf
       0.08650706 0.91707236 0.24865137 -0.78248763
0003d0 81 7a 77 3e d6 b6 97 3e 5b 04 14 3f b0 5c ec bd
       0.24167825 0.2963168 0.57819146 -0.11541116
0003e0 a9 f8 8b 3e c6 c6 85 be f5 e3 93 3e d9 76 ff 3d
       0.2733815 -0.26128215 0.28884855 0.1247384
0003f0 6d ef a9 be c0 fc 3d 3d 50 d3 0f 3f 79 89 84 3e
       -0.3319048 0.04638362 0.5618181 0.25886133

fc1.bias f4 [64]
000000 ba b4 11 3f 90 ba 51 be bc 48 1c 3f 4f 1c 24 3f
       0.5691639 -0.20481324 0.61048484 0.64105695
000010 2c bc 23 3f 5f f8 12 3f 6b 40 83 3f 1e a5 8a 3e
       0.63959 0.57410234 1.0254034 0.270791
000020 68 06 8b 3e c2 bf cc 3d cc 84 4e 3f f9 a3 35 be
       0.27153325 0.099975124 0.8067138 -0.17738332
000030 c8 8f 8b 3e 7e 49 94 3e 03 6d 41 be 0f e2 23 3e
       0.27258134 0.2896232 -0.18889241 0.16004203
000040 5d 47 ba bd 7c 18 c8 3e 45 78 87 3d 2b 0c af 3d
       -0.09095643 0.3908118 0.066147365 0.08547243
000050 c5 c4 25 3e 25 c9 a7 3e b1 0e 6f 3f ae 22 4b be
       0.16188343 0.3277065 0.9338179 -0.19837448
000060 13 38 7f be 22 52 23 be 92 a4 0a 3f 53 04 2c 3f
       -0.24923734 -0.159493 0.54157364 0.671941
000070 d5 3c ae 3d cf 77 7c 3f 01 9b 39 3f d3 fb 41 3e
       0.085076965 0.98620313 0.7250214 0.1894372
000080 78 8a 0d bd bc fd 24 3e d2 b0 04 3f 17 86 e8 3e
       -0.034555882 0.16112417 0.51832306 0.45414802
000090 20 58 f8 3d d7 e9 33 3f 56 39 7a 3e a6 73 3c 3f
       0.121261835 0.70278686 0.24435934 0.73613966
0000a0 3e e3 27 3f 55 0e f2 3e 48 4c 4d 3f a8 07 f7 3c
       0.6558112 0.4727656 0.8019452 0.030155018
0000b0 a1 ab 26 3f ca 57 55 3e c0 4e 4f 3f d8 a4 d0 3e
       0.65105635 0.2083427 0.8097954 0.40750766
0000c0 b5 0d 53 be 69 52 b9 3e 5d 8d f8 bd dd 76 75 bc
       -0.20610698 0.36195686 -0.12136338 -0.0149819525
0000d0 8d 49 54 be ee d1 5c 3f ac fa 71 3f d1 f6 75 be
       -0.20731182 0.8625783 0.9452312 -0.24019934
0000e0 c4 c8 89 3e 4a e9 f3 3e 75 79 da 3e 11 03 86 3f
       0.26910985 0.47638923 0.4267079 1.0469686
0000f0 8a 81 33 be d5 b2 83 3f 0f 3d fe 3e b3 93 da bd
       -0.17529884 1.028895 0.4965596 -0.10672703

fc2.weight f4 [64, 64]
000000 0a 69 37 be f0 f8 81 3e 15 eb 11 be 6b b8 3c be
       -0.17911163 0.25385237 -0.14249833 -0.18429725
000010 7a 64 1a 3e 88 43 e2 3d bb c6 26 3e 10 5b a5 3e
       0.15077391 0.11048037 0.16286747 0.32296038
000020 da 5f 1e 3e 5d 5b ae 3e 4b c7 70 3c 7f 04 be 3d
       0.15466252 0.3405408 0.014695953 0.09278201
000030 46 19 6f 3e ec 22 83 bd 64 78 ed 3d 60 46 95 3e
       0.23349485 -0.06403145 0.11595228 0.29155254
000040 c4 b6 4d 3e fd 17 d0 3d 40 e1 62 3d a6 1c 05 3e
       0.20089251 0.101608254 0.055390596 0.1299921
000050 75 26 5c 3e ee 06 9f 3d 19 8d 31 3b b3 70 89 3e
       0.21499045 0.077649936 0.0027092157 0.26843795
000060 84 51 90 bd 30 a8 b9 3c 4d ee 01 be 57 16 04 be
       -0.07046798 0.022663206 -0.12688561 -0.12899147
000070 5b ee 3c 3e 89 0c ba bb f9 20 92 3d 85 bc 47 3e
       0.184503 -0.005677764 0.07135195 0.19505508
000080 b7 ff 59 3e 66 f3 6a 3e 9b 27 8e bc f3 f2 15 3e
       0.21288954 0.22944412 -0.01735287 0.14643459
000090 9f b2 82 3e b2 c4 c1 3d 8a ea 58 3d 49 92 fb bd
       0.25526902 0.09461345 0.05295805 -0.12283761
0000a0 02 60 97 bd d2 eb 88 be b7 e9 9f 3c 3f 68 2d be
       -0.07391359 -0.26742417 0.019520624 -0.16934298
0000b0 ba 90 9e 3d f2 5b 56 3e ef 59 be bd d9 df fb 3d
       0.07742448 0.20933512 -0.09294497 0.12298555
0000c0 50 d9 b6 3e 91 63 18 3c f7 c7 73 3e 57 63 57 3d
       0.3571267 0.009301082 0.2380675 0.052584972
0000d0 fd 6b 4d 3e 4f b1 22 3e fa a4 3b bb 47 d7 1c 3e
       0.20060726 0.1588795 -0.002863227 0.15316497
0000e0 a9 23 21 3d eb fb 42 bc 67 51 28 be ad f9 9f 3c
       0.03934065 -0.011900882 -0.16437303 0.019528234
0000f0 2b 80 b0 3d 63 26 ce bc c2 fd 57 be 95 3b a1 3d
       0.08618196 -0.025164789 -0.21092895 0.078726925
000100 75 93 9f bd d0 1e b6 3d e6 71 04 3d 88 fe ee bc
       -0.07791797 0.08892596 0.032335185 -0.029174104
000110 94 00 4d bc ae 1b 23 3d fb 2b 7a 3d 0d fd 33 3e
       -0.012512345 0.03982132 0.0610771 0.17577
000120 f0 0c 4f 3d 23 20 2a 3e 0e 6b 17 3d 1a 42 63 3d
       0.050549448 0.16613822 0.03696733 0.05548296
000130 c9 f5 2d bd 0b df 2c be 98 0d b5 3d 43 8a 5b 3e
       -0.042470727 -0.16881959 0.088404834 0.21439461
000140 62 b0 60 3d 05 c0 16 3e 1b 55 d5 3d a4 4d b3 3c
       0.05485571 0.14721687 0.10416623 0.021887608
000150 7a 84 82 bb 35 5c a0 3d 38 a8 d9 3c 17 7d ec 3d
       -0.0039830776 0.07830087 0.02656947 0.115472965
000160 3f 13 94 3d 4a 9b 8b 3d 75 d8 ca bd 29 5a 98 3c
       0.072302334 0.068167284 -0.09904567 0.01859768
000170 2c 63 e7 3d 9a c5 a2 3d 48 95 6d bd c9 a6 33 bc
       0.112982124 0.07947846 -0.058003694 -0.010965058
000180 ba 57 c9 3e ea a3 a5 3e f8 77 a5 3c 08 7d fc bb
       0.39324743 0.3235162 0.020198807 -0.0077053346
000190 40 7a b0 3e fa ec 21 3d f0 a3 87 3d 6a 9d b3 bc
       0.3446827 0.03953264 0.066230655 -0.021925647
0001a0 f0 65 34 3d b4 fe 6b be 23 90 91 3d 3a ea 5a bd
       0.044042528 -0.2304638 0.0710757 -0.053446032
0001b0 ef dd 68 bd 83 c9 a2 3e 68 34 de bd 76 a7 34 3e
       -0.056852277 0.31794366 -0.108498394 0.17642006
0001c0 b0 0b 2a 3e 0f 00 97 3d 26 32 82 3e 90 c3 00 3e
       0.16606021 0.07373058 0.25428885 0.12574601
0001d0 1d c9 60 bc da 1f ae bd 96 d7 90 bd 07 3d 48 3d
       -0.013719824 -0.08502169 -0.0707237 0.048886325
0001e0 3b 44 ce 3d 83 b2 d7 bd 1b 77 0e be 58 70 6b bd
       0.10071608 -0.10532095 -0.13912623 -0.057480186
0001f0 00 84 94 bc 00 f2 ce 3d 2f f2 0f be a1 47 ea 3d
       -0.018129349 0.101047516 -0.1405723 0.114394434
000200 44 c9 50 bc fc f3 fa 3d ca 55 b2 bd 3a c4 b4 bd
       -0.012743298 0.122535676 -0.08707769 -0.0882649
000210 1a 13 a7 bc ac b0 55 bd cc fd 1b bd 10 5b f3 3d
       -0.02039485 -0.05217044 -0.038083836 0.11882603
000220 27 41 25 3d d7 fa d9 3b 7c 37 2a bd 1c 89 40 3d
       0.040345337 0.006652217 -0.04155682 0.047005758
000230 d8 da 5e bd 5c 6f 45 3c 8c ea b0 bd 60 4d af bd
       -0.054407924 0.012050476 -0.08638486 -0.0855968
000240 07 bb 02 be d0 0e 4e 3a c8 fc 65 bd 2c ae 32 bd
       -0.12766658 0.00078604836 -0.056149274 -0.043623134
000250 c0 98 f7 bc f4 c8 10 3d dd f0 02 be a0 9a d9 3d
       -0.030224204 0.035347894 -0.12787195 0.106251955
000260 8c 4f 2b 3d 40 ed 12 bb a0 e1 4d bd b7 73 d5 3d
       0.04182391 -0.0022419244 -0.050264 0.104224615
000270 de ce 88 3d 30 c2 c8 bc 1d 54 2c bd 69 c4 05 bd
       0.06680082 -0.024506658 -0.042072404 -0.032658014
000280 00 7c 4b bb d8 9a ae 3a c0 99 c7 3b 26 2d 9c 3d
       -0.0031049252 0.0013321294 0.0060913265 0.07625799
000290 e6 46 50 3c 30 3c 77 3d aa fc d4 3d 82 48 fc bc
       0.012712216 0.060360134 0.10399754 -0.030796293
0002a0 84 21 c7 3d a2 2f 94 bd 60 0b c7 bd 96 cc ce bd
       0.097231895 -0.07235648 -0.097189665 -0.100976154
0002b0 e8 6a c9 bd d0 b3 e7 3c 88 c5 be bd 55 ca 00 be
       -0.09834844 0.028283983 -0.0931502 -0.12577184
0002c0 40 7a 93 bd 70 e0 d1 3d 6e b7 e1 bd e0 21 a3 bb
       -0.07201052 0.10247886 -0.110213146 -0.0049784034
0002d0 b3 15 4a 3d 5d f0 c6 bd e1 c5 70 bd f2 a8 f5 3d
       0.0493371 -0.097138144 -0.058782462 0.119951144
0002e0 d8 8e d3 bc 08 88 03 bd 50 04 71 bb 23 a7 f3 3d
       -0.02582495 -0.03211215 -0.0036776252 0.11897113
0002f0 74 31 b5 bd 97 fe 38 3d 58 27 41 bd 00 61 db 3b
       -0.08847323 0.04516467 -0.04715666 0.006694913
000300 cd 8b 5e be a0 71 65 3e 34 03 31 bd ec f3 1d bd
       -0.21733017 0.22406626 -0.043215945 -0.0385627
000310 aa 61 9e bd b4 13 a8 bd 93 80 c1 bc 5f 8e a2 3e
       -0.07733472 -0.08206883 -0.02362088 0.31749246
000320 4f d2 71 bd e4 74 58 3e a3 e6 ce bd e2 47 30 3e
       -0.059038457 0.2113834 -0.10102584 0.17214921
000330 44 77 c4 3d f9 5e e2 bd 79 fb 35 3e 86 86 77 3e
       0.095930606 -0.11053271 0.1777171 0.2417241
000340 08 00 10 3e 19 67 85 3e a1 fa 8d 3e 1e 7c 11 3e
       0.14062512 0.2605522 0.27730277 0.14207503
000350 63 fb 74 3e 87 08 41 3e a1 c7 17 3d 5d 91 ed 3d
       0.23924021 0.18850909 0.037055615 0.115999915
000360 20 7e d7 bb b9 74 cb ba 50 fb 42 be b6 d7 e4 3b
       -0.0065763146 -0.0015522457 -0.1904118 0.0069837226
000370 8b 88 3e 3e 26 b0 fa 3c e3 96 1e bd bf b8 54 3e
       0.18606775 0.030601572 -0.038718116 0.207736
000380 06 5f c4 3e 69 a5 3f 3e 12 0d 75 3d ee d7 9d 3d
       0.38353747 0.18715443 0.059826918 0.07707201
000390 b6 62 db 3d 0f 11 23 3e f0 53 52 3e 96 59 2f be
       0.10712187 0.15924476 0.20539832 -0.17124018
0003a0 1f 98 06 be 9e 6f 94 be 69 2f 10 3e 44 d7 9b bd
       -0.13143967 -0.28991407 0.14080586 -0.07609418
0003b0 67 82 02 be 0c 53 9e 3e a5 c5 cb bc 83 15 20 3e
       -0.12745057 0.30922735 -0.024874518 0.15633206
0003c0 d6 be 4d 3e 4d 32 4a 3e 51 af 89 3e 45 5a bf 3d
       0.2009233 0.1974575 0.26891568 0.093433894
0003d0 c6 f9 46 3e 25 a0 98 3d 16 71 15 3e 78 36 9b 3e
       0.19431219 0.0745242 0.1459392 0.30314994
0003e0 d0 2e 2c 3e 48 32 96 bd c3 8e af bd b7 70 31 3e
       0.16814733 -0.07333809 -0.085721515 0.17328154
0003f0 cb 00 80 3d fe 17 9a 3d 85 6c ad bd f8 32 df 3c
       0.06250151 0.075241074 -0.08467964 0.027245983

fc2.bias f4 [64]
000000 60 b2 f0 3d 81 3f b0 bd ce 06 a6 3c 55 0c 03 3e
       0.11752772 -0.086058624 0.020266917 0.12797673
000010 ae 17 0d bd dd bf d1 3b c8 be a3 bb 9e 22 08 bd
       -0.03444641 0.0064010457 -0.004997108 -0.03323614
000020 a0 a8 e8 3d db 66 0b 3e b9 22 aa 3d ec f1 3f 3f
       0.11360288 0.13613455 0.08307404 0.7497852
000030 c0 de e4 3d ad cb 91 3c 6b 10 86 bd f0 6f 5e bd
       0.11175299 0.017797315 -0.065461 -0.05430597
000040 fc 19 f5 3d 36 c9 2d bc b1 ed e9 3d 15 dd 88 bd
       0.11967847 -0.010607054 0.11422289 -0.06682793
000050 0e df a9 bd 37 e2 31 3f db 34 f0 bc 70 e9 90 bd
       -0.082944974 0.694858 -0.029322078 -0.07075775
000060 e7 8e 03 be 96 85 3a bc 45 82 c5 bc 77 54 09 3d
       -0.12847482 -0.011384388 -0.024109969 0.033527818
000070 10 38 67 bd 72 be 21 3e 4a bd 83 bb ab 8c 17 3f
       -0.05644995 0.15795305 -0.0040203677 0.5919902
000080 ad 81 5b 3d d6 9b 33 bd 18 bb d9 bd 2d 09 86 3d
       0.053590465 -0.04384979 -0.106313884 0.06544719
000090 18 be b2 3c ab 3d dc 3d b0 86 26 3f f1 28 0c bc
       0.02181916 0.1075395 0.65049267 -0.008554683
0000a0 bc 8c dd bd b4 92 15 bc 86 a2 a2 bb d8 fb 9c 3d
       -0.108178586 -0.009129215 -0.004963222 0.07665223
0000b0 4e 53 cf 3d 97 2d b6 3d e0 5f 76 3d 95 0f a1 bc
       0.10123311 0.08895414 0.060150027 -0.01966075
0000c0 bc e8 fe bc 7b b9 08 3e 28 de 6f bc ef e7 0e 3e
       -0.031116836 0.13352005 -0.0146403685 0.13955663
0000d0 fd df ef bd b4 39 01 3e 04 35 c1 bd bc ae bf 3d
       -0.11712644 0.12619668 -0.0943394 0.093595
0000e0 1e bb 19 3d 28 4f a6 3d 2c 6c 81 bd 96 e1 e6 bd
       0.037531964 0.081205666 -0.0631946 -0.11273496
0000f0 d5 22 83 bd 48 4b ee bd c7 57 a8 3d 2c 8a 0c 3e
       -0.06403128 -0.116354525 0.08219867 0.13724583

fc3.weight f4 [4, 64]
000000 63 ef 9b be 30 e3 5e be 68 75 2b 3d 80 b4 9c bd
       -0.30456075 -0.21766353 0.041860014 -0.07651615
000010 b1 3d a0 be e3 7d 9b be f1 d3 68 3d 92 40 70 be
       -0.31297067 -0.3036948 0.056842748 -0.23462132
000020 41 54 42 be f6 88 38 be bb 73 db bd bb 5e 5e 3f
       -0.18977453 -0.18020996 -0.10715433 0.868633
000030 09 75 89 be 5f ca 43 be 8f 70 7b bc b1 46 7c be
       -0.26847103 -0.19120167 -0.01534666 -0.24636342
000040 fd f4 9b be 54 29 8e be 4c e7 48 be 09 b5 af bd
       -0.3046035 -0.27765906 -0.19619483 -0.085794516
000050 5e 59 70 be 9f fb 51 3f cc ea df bd 79 43 aa 3d
       -0.23471591 0.8202457 -0.10933456 0.08313651
000060 bd c4 58 3d 5a 97 84 be 1d 27 9c 3d 0d e5 30 be
       0.052922 -0.25896722 0.07624648 -0.17274876
000070 93 af b8 bd 9e 7a 6b be cf b7 ba bd 2d 45 47 3f
       -0.09017863 -0.22995993 -0.0911709 0.7783993
000080 32 16 b4 3d 44 ad 26 be f4 ed 18 bd e2 79 77 3d
       0.08793296 -0.16277033 -0.037336305 0.06041897
000090 38 6f fc 3d 04 f2 88 bd cf 01 57 3f e0 2b cf bd
       0.12325901 -0.06686786 0.83987135 -0.1011579
0000a0 24 b3 aa bd b7 23 02 be b2 d8 1f be 83 db cc bd
       -0.083349496 -0.12708937 -0.15610006 -0.10002806
0000b0 59 62 54 be 80 c9 3d 3d 8b 7b 4e be e7 c0 9d be
       -0.20740642 0.046334743 -0.20164315 -0.30811235
0000c0 02 23 37 be e6 a1 7f be 5e 16 87 3d 53 b0 57 be
       -0.17884448 -0.24964103 0.06596063 -0.21063356
0000d0 64 b4 e0 3d 8f 04 2f be 2c 7e e0 3d 05 9e 0f be
       0.10971907 -0.17091583 0.109615654 -0.14025123
0000e0 49 aa 94 be e5 f8 81 be 51 77 d2 bb 3b 9d 3a 3d
       -0.29036167 -0.25385204 -0.006422915 0.045560103
0000f0 80 cf d2 3c d5 40 af 3d 26 74 83 bd 2f f4 97 be
       0.02573371 0.085572876 -0.06418638 -0.29678485
000100 a2 e5 d9 bd b6 f2 24 be 9e d2 e3 3d 35 7c 82 be
       -0.10639502 -0.16108212 0.111241564 -0.25485387
000110 50 b7 29 be 59 10 98 be 04 25 51 3c 62 fe 6b be
       -0.16573834 -0.29699972 0.012765173 -0.23046258
000120 25 93 87 be 51 0c 8b be 0f b4 14 be 7a 02 6a 3f
       -0.2647945 -0.27157834 -0.14521812 0.9141003
000130 cb e5 50 be e1 d3 4a be 41 8b 6d 3d 25 22 7a be
       -0.20400159 -0.19807388 0.05799413 -0.24427088
000140 f8 71 60 be a6 0c 1c be 69 b0 8d be f8 69 a8 3d
       -0.21918476 -0.152392 -0.27673653 0.08223337
000150 fb c0 5c be 4d 75 57 3f c9 27 85 be af 22 8b 3c
       -0.21557991 0.8416336 -0.26006916 0.016984312
000160 ec cc ce 3d 63 1c 46 be 5b b8 f6 bd 12 7b 89 be
       0.100976795 -0.19346766 -0.12046882 -0.26851708
000170 0f 8c 9f be 57 1f e4 bd 57 a7 96 be 80 b7 46 3f
       -0.31161544 -0.1113879 -0.29424545 0.7762375
000180 6a 48 03 be c2 b2 04 be 84 2f d4 bd eb 23 c8 3d
       -0.12820593 -0.12958816 -0.103606254 0.09772476
000190 5a c4 af 3d 1c 36 37 be dc cd 45 3f a6 37 6a be
       0.08582373 -0.17891735 0.7726724 -0.2287279
0001a0 26 bd 85 3d 99 c2 31 be 76 0c 3e be 8d ad 81 be
       0.06530218 -0.1735939 -0.18559441 -0.2532772
0001b0 b6 6f 80 be 50 bc 0e 3d ae f0 05 be 6d f2 92 be
       -0.2508523 0.034847558 -0.13080093 -0.2870058
0001c0 9d e5 09 be cc 3f aa bd e6 9d 2a 3d 2e 1a 25 be
       -0.13466497 -0.083129495 0.04165449 -0.16123268
0001d0 16 d8 d6 3d 18 7c 6a bd f4 15 3f bd a8 84 e3 bd
       0.10490434 -0.05724725 -0.046651796 -0.111092865
0001e0 cc 20 99 be ea 51 94 bd 67 7d 1c 3c c6 fb 03 bb
       -0.29907835 -0.07242186 0.009551383 -0.0020139082
0001f0 54 be 9c 3c 85 69 71 bc d9 9d 15 bd 8c 68 91 be
       0.019133724 -0.0147346305 -0.03652749 -0.28400075
000200 35 c5 76 bd 99 dd cd bd 9c 8c a1 bd ad 38 73 be
       -0.060246665 -0.10052032 -0.07888147 -0.23752089
000210 80 2a bf bd 84 1e a1 be 40 29 06 be 06 45 2e be
       -0.09334278 -0.31468594 -0.13101673 -0.17018518
000220 d4 23 29 be b8 0d 6b be 87 23 95 be 07 fd 75 3f
       -0.16517574 -0.22954452 -0.29128668 0.96089214
000230 cc 8c d6 bd 18 81 ab bd b8 9a bb 3d d8 1a 5e be
       -0.104760736 -0.08374232 0.0916037 -0.21689928
000240 ab 11 a2 be ed 69 17 be 98 5e 6b be 00 e8 1b 3b
       -0.31654105 -0.14786501 -0.22985303 0.0023789406
000250 6f 30 3d be da ab 48 3f 8f f4 1d be 08 39 52 bc
       -0.18475507 0.78387225 -0.15425323 -0.01283098
000260 b6 8e e9 3b 12 fc a2 be 11 9b bd 3d 59 27 8a be
       0.007127608 -0.3183294 0.09258092 -0.26983145
000270 96 37 30 be 15 a6 de bd 65 c8 91 be 48 7b 45 3f
       -0.17208704 -0.108715214 -0.284732 0.7714124
000280 ce 1b bf 3d 65 0d 5a be 40 7a 95 3b 7c cc a3 3d
       0.09331475 -0.21294172 0.0045616925 0.07997987
000290 e2 d5 8c bd 0c 8a 7f be 11 4c 48 3f c7 f8 93 be
       -0.068767324 -0.24955004 0.7824107 -0.2890074
0002a0 4c 01 3a 3d c6 94 89 bd ed 60 8b bd 5e df 8e be
       0.045411393 -0.067178294 -0.068055965 -0.2790479
0002b0 5f 1e 20 be 76 4d 8c 3d d1 ca 3a be ff 6c 37 be
       -0.15636586 0.06850712 -0.18241431 -0.17912672
0002c0 77 a7 8b be 38 13 7b be 45 4f c6 3d ed d1 a2 be
       -0.27276203 -0.2451905 0.09683088 -0.31800786
0002d0 55 66 53 3d 91 e2 80 be 4b 10 3b bc e9 24 8d bd
       0.051611263 -0.25172856 -0.011417459 -0.06891806
0002e0 e4 30 74 be 15 e6 96 be b4 ab a1 3c 89 1c fe bc
       -0.23846775 -0.29472414 0.019735195 -0.031019466
0002f0 ea ce c8 3c c0 bd 87 bc 0e 6f 15 3d d8 f3 2a be
       0.024512727 -0.016569972 0.036482863 -0.16694582
000300 1c d3 7e be b5 1b 02 be 52 35 25 bc 3a c6 04 be
       -0.2488522 -0.12705882 -0.010083513 -0.12966242
000310 19 91 85 be d0 ff 3f be d0 3e 74 3d 72 34 2e be
       -0.26087263 -0.18749928 0.059630215 -0.17012194
000320 eb e9 32 be cc 4f 86 be 96 33 1e be 16 75 46 3f
       -0.17472045 -0.26232755 -0.15449366 0.7752241
000330 e0 5a 31 be 84 f6 52 be c6 a8 fd bd ae 4d 0b be
       -0.17319822 -0.20601851 -0.123857066 -0.13603851
000340 8a d7 7b be b2 74 9a be 8c 53 26 be 85 9f cc 3d
       -0.2459394 -0.30167156 -0.16242808 0.099913634
000350 0f 59 9c be 5f be 58 3f b9 b2 f5 bd 73 0e 71 3d
       -0.30536696 0.84665483 -0.11996979 0.05885167
000360 8b b2 d7 bd 1f b7 8f be 7a 6d 5b bc 6e f3 f9 bd
       -0.10532101 -0.28069398 -0.0133928 -0.12204634
000370 53 4d 2e be dc cf 99 be 41 a5 13 be 3a 72 51 3f
       -0.17021684 -0.30041397 -0.14418508 0.8181492
000380 4c bd 25 bb 1a 71 92 be 0a c9 9e bd 48 dc 62 bc
       -0.0025289832 -0.28601915 -0.07753189 -0.013846464
000390 fa c8 e6 3d ff 70 29 be 64 f5 5e 3f 54 e6 5b be
       0.11268802 -0.16547011 0.87093186 -0.21474582
0003a0 b3 d7 80 3d 78 64 85 be 57 a5 48 be 2d 35 8b be
       0.06291141 -0.26053214 -0.19594322 -0.27189007
0003b0 cd 1c 87 be e6 ef fd 3a 61 53 1e be c8 d9 75 be
       -0.2638916 0.0019373863 -0.15461494 -0.24008858
0003c0 de 81 14 be 05 13 0f be c7 05 e9 3d 25 ca b4 bd
       -0.14502665 -0.13972099 0.11378055 -0.088276185
0003d0 b8 d3 cb bd 4c 0d 79 be b4 66 29 3c 26 6f 79 be
       -0.099524915 -0.24321479 0.010339428 -0.24358806
0003e0 a3 7a 72 be a8 07 30 be bc 96 e8 bc 75 51 8c 3d
       -0.23679595 -0.1719042 -0.028392188 0.06851474
0003f0 f5 e4 6f bc 83 c6 45 3d c5 73 b4 3d de 57 d2 bd
       -0.01464199 0.04828502 0.08811144 -0.102706656

fc3.bias f4 [4]
000000 39 6e cb 3e fc 33 d2 3e 64 40 f4 3e 77 94 fa 3e
       0.3973253 0.41055286 0.47705376 0.48941395
