agentDQN_Trained_Model.pth (torch, 22479 bytes, 6 tensors)

red.0.weight f4 [64, 8]
0.24342494 -0.79580677 -0.020556187 -1.1460098 0.55775905 0.15735042 -0.042645272 0.028554069
0.69745696 -0.95840067 0.16085881 -1.1148875 0.09303512 0.06340088 0.19284698 -0.009903921
0.7375676 -1.0341849 0.24315396 -1.3233922 0.013623807 -0.09764709 -0.04820483 -0.034673605
0.076611556 -0.7195409 -0.3084984 -0.4791391 -0.005160674 -0.4628562 -0.64293236 -0.17250676
-0.4327724 -2.3949819 -0.15120862 0.034936834 -0.30351582 0.31695518 0.081427 0.21607423
0.15245044 0.013043152 0.051874794 -0.5649137 -0.23378694 -0.49832118 -0.1102517 -0.08365457
0.6493315 -0.25694114 -0.15767238 -0.66968083 0.49486354 0.3357598 0.15711577 -0.18114547
0.39146456 -0.1067237 0.61648285 -0.3414883 0.1942693 0.60901755 -0.1774579 -0.34127998
-0.97172165 -0.3448843 -0.106412716 0.30410734 0.98619306 0.26603764 -0.30763903 -0.13762236
-0.041844692 -0.39361346 -0.68376327 -0.7259341 0.73459876 0.19438305 0.3118358 0.22812977
-0.2579183 -0.024018714 -0.32718524 -1.2641841 -1.4109694 -0.36836064 -0.58731157 -0.23015179
0.6506993 -1.0459449 0.6789968 -1.178218 -0.8227394 -0.52743596 -0.17002276 0.1594669
-0.35836393 -1.7491604 -0.31580326 -0.17496905 -0.14399391 0.8137644 -0.1153423 -0.018451953
-0.81253743 -0.36842892 -0.6132764 -0.6945702 0.62602097 0.28094783 0.13965939 0.28362295
0.12981486 -0.290207 0.5353668 -0.48624834 2.8556662 -0.8973061 -0.095309824 0.3670517
-0.48056898 -1.5040253 0.4127453 0.28326905 0.68191993 0.078638725 -0.119875796 0.521374
-0.02166518 -0.6045441 -0.19444445 -0.46904916 -0.25704032 -0.6086891 0.08146127 0.15418042
0.92852515 -1.3942323 1.1308156 -0.9902046 -0.35216972 -0.079475634 -0.03318189 0.06664458
-0.052673787 -0.374994 -0.5692053 -0.9323541 0.2320202 0.23786184 0.29945004 -0.13946207
-0.3555415 -0.006288592 -0.4266752 0.5506267 0.5495412 0.28827134 0.14576262 -0.49261236
0.36517817 -0.31444302 0.46706295 0.065130845 -0.28642666 0.018761948 -0.25517488 -0.5710792
-0.565072 -0.55019206 -0.2971077 -1.0445054 0.5588259 0.25933036 0.15651584 0.43119112
-0.0036342249 0.02541802 0.074225925 -0.5168453 -0.20191579 -0.52832574 -0.06271951 0.34176907
0.182063 -0.6253576 0.83294046 -1.0922447 0.7527055 0.067554794 0.3080403 -0.1471751
-0.90929043 0.088075675 0.027755838 -0.046454526 0.59981424 0.6431408 -0.051974967 -0.2534928
-0.29782468 0.0030106239 -0.08391143 -0.008312051 0.56324214 0.6115346 0.16777119 -0.6203215
-0.45410544 -0.31669304 -0.23559742 0.21246094 0.81787527 0.36628878 -0.34153184 -0.70817965
-0.86541617 -0.56959164 -0.7517114 -0.70722544 0.7543902 0.15083942 0.16844608 0.11465091
0.35769883 1.5061423 -1.5106894 -1.8638986 0.77223784 0.11790359 -0.15791027 0.4885489
-0.9564133 -1.1020248 -1.0758125 -0.3534249 0.23819873 0.024360426 0.19124518 0.0659472
-0.46761632 0.29940662 -0.5439979 0.6829424 0.7655365 0.12196094 -0.206974 0.0698194
0.12069391 -0.0052193007 -0.4320799 -0.10019458 0.8686628 0.3796757 -0.04054772 -0.2049274
00000000: 6344 793e feb9 4bbf 7365 a8bc 73b0 92bf
00000010: 4cc9 0e3f 7820 213e cfac 2ebd 39ea e93c
00000020: 8a8c 323f bf59 75bf 2cb8 243e a2b4 8ebf
00000030: 3289 be3d 52d8 813d ae79 453e 0e44 22bc
00000040: 3bd1 3c3f 2c60 84bf 5afd 783e ea64 a9bf
00000050: 6336 5f3c 33fb c7bd 6e72 45bd e905 0ebd
00000060: 85e6 9c3d d533 38bf 81f3 9dbe b851 f5be
00000070: df1a a9bb 7dfb ecbe 3797 24bf 9da5 30be
00000080: 5894 ddbe 6247 19c0 6fd6 1abe ed19 0f3d
00000090: 6d66 9bbe f347 a23e 33c3 a63d 9042 5d3e
000000a0: f81b 1c3e f2b2 553c aa7a 543d 2f9e 10bf
000000b0: d865 6fbe f423 ffbe a5cb e1bd 1653 abbd
000000c0: 973a 263f ca8d 83be de74 21be 3470 2bbf
000000d0: c15e fd3e b5e8 ab3e f5e2 203e 337e 39be
000000e0: 0b6e c83e f591 dabd d2d1 1d3f 8ed7 aebe
000000f0: 88ee 463e 93e8 1b3f 86b7 35be 40bc aebe
00000100: c0c2 78bf ad94 b0be e9ee d9bd f5b3 9b3e
00000110: 2677 7c3f 1636 883e dd82 9dbe e0ec 0cbe
00000120: 5765 2bbd b487 c9be 1c0b 2fbf d1d6 39bf
00000130: aa0e 3c3f 5a0c 473e f1a8 9f3e da9a 693e
00000140: de0d 84be e5c2 c4bc d384 a7be c9d0 a1bf
00000150: a59a b4bf c499 bcbe 0d5a 16bf e9ac 6bbe
00000160: 3b94 263f 86e1 85bf bcd2 2d3f d9cf 96bf
00000170: 0d9f 52bf 0b06 07bf 721a 2ebe 4b4b 233e
00000180: 7a7b b7be 7de4 dfbf f7b0 a1be 162b 33be
00000190: 2473 13be dd52 503f 9538 ecbd 8d28 97bc
000001a0: 7402 50bf b7a2 bcbe afff 1cbf 5acf 31bf
000001b0: e942 203f 65d8 8f3e df02 0f3e 0737 913e
000001c0: 30ee 043e 0396 94be cc0d 093f 8bf5 f8be
000001d0: 3cc3 3640 dab5 65bf cc31 c3bd 33ee bb3e
000001e0: 230d f6be e783 c0bf 5a53 d33e a408 913e
000001f0: 4e92 2e3f 570d a13d 7181 f5bd c478 053f
00000200: 2d7b b1bc 67c3 1abf 721c 47be 3627 f0be
00000210: ca9a 83be 0dd3 1bbf 2bd5 a63d 79e1 1d3e
00000220: d3b3 6d3f 3476 b2bf 91be 903f 0c7e 7dbf
00000230: 974f b4be 1fc4 a2bd bce9 07bd f47c 883d
00000240: 78c0 57bd 37ff bfbe 70b7 11bf c2ae 6ebf
00000250: b496 6d3e 0e92 733e 8451 993e 25cf 0ebe
00000260: 8909 b6be 8810 cebb 2c75 dabe dff5 0c3f
00000270: bbae 0c3f 4d98 933e cc42 153e b037 fcbe
00000280: a2f8 ba3e adfe a0be e022 ef3e 5263 853d
00000290: 84a6 92be a8b2 993c 48a6 82be 3f32 12bf
000002a0: 8fa8 10bf 63d9 0cbf 801e 98be 5ab2 85bf
000002b0: 370f 0f3f f3c6 843e b045 203e 15c5 dc3e
000002c0: 2d2c 6ebb 7439 d03c c303 983d f94f 04bf
000002d0: 03c3 4ebe 5b40 07bf 1673 80bd 5bfc ae3e
000002e0: b96e 3a3e 7017 20bf 963b 553f adce 8bbf
000002f0: 4fb1 403f 2b5a 8a3d 75b7 9d3e 12b5 16be
00000300: 42c7 68bf 0561 b43d 3660 e33c 1a47 3ebd
00000310: 6d8d 193f e0a4 243f b4e3 54bd cfc9 81be
00000320: 7a7c 98be e34d 453b c1d9 abbd 452f 08bc
00000330: a330 103f 888d 1c3f 36cc 2b3e 64cd 1ebf
00000340: 8280 e8be 9725 a2be 7340 71be 5c8f 593e
00000350: 4660 513f 348a bb3e 43dd aebe 434b 35bf
00000360: ea8b 5dbf c2d0 11bf 2970 40bf ba0c 35bf
00000370: b71f 413f a675 1a3e 217d 2c3e 19ce ea3d
00000380: 4d24 b73e 45c9 c03f 455e c1bf 3b94 eebf
00000390: 61b1 453f 7077 f13d 3bb3 21be 1523 fa3e
000003a0: 81d7 74bf 260f 8dbf 39b4 89bf 1cf4 b4be
000003b0: 5eea 733e 848f c73c c7d5 433e 530f 873d
000003c0: 686b efbe d34b 993e 7243 0bbf 50d5 2e3f
000003d0: 33fa 433f a8c6 f93d fef0 53be 79fd 8e3d
000003e0: 5e2e f73d ab06 abbb 9439 ddbe d132 cdbd
000003f0: af60 5e3f da64 c23e 5e15 26bd 7dd8 51be

red.0.bias f4 [64]
-0.015591205 -0.21291484 -0.12753038 0.7554428 0.729261 0.1960191 -0.42428893 0.5185315
0.34426552 -0.26965883 0.054117814 -0.19777207 0.6461451 -0.29289803 0.19880761 0.53215086
0.21030591 -0.2391557 0.44426557 0.20388706 -0.3041396 -0.43275264 0.14529453 0.6522632
-0.1299914 -0.066029415 0.27970225 -0.098045476 0.8466964 -0.25180042 0.3603761 -0.3603023
-0.17760165 -0.10278355 -0.35988587 -0.42636052 -0.23708457 -0.08998563 0.4468599 0.38831118
-0.022253212 -0.31178272 -0.09252994 -0.22845297 -0.0968929 0.3625193 -0.13269037 0.63260686
-0.08448043 -0.3024892 -0.2010553 0.951273 0.12728862 -0.026707428 0.23956932 0.10873023
0.03355751 0.23487489 -0.34923762 0.42133707 1.2060338 -0.009278983 -0.4636546 0.2714021
00000000: 4172 7fbc 5906 5abe 5397 02be b364 413f
00000010: d9b0 3a3f 3bb9 483e 663c d9be 7bbe 043f
00000020: 9243 b03e b910 8abe a4aa 5d3d c384 4abe
00000030: c469 253f bbf6 95be 3994 4b3e 0a3b 083f
00000040: 6f5a 573e 3be5 74be c776 e33e c5c7 503e
00000050: 30b8 9bbe c191 ddbe 17c8 143e b9fa 263f
00000060: 771c 05be 6e3a 87bd 2235 8f3e 11cc c8bd
00000070: 18c1 583f fceb 80be 3783 b83e 8b79 b8be
00000080: 35dd 35be 2f80 d2bd f642 b8be ed4b dabe
00000090: 4cc6 72be 634a b8bd d2ca e43e b9d0 c63e
000000a0: 5e4c b6bc fca1 9fbe 5680 bdbd 93ef 69be
000000b0: c96f c6bd 219c b93e fcdf 07be 86f2 213f
000000c0: 1304 adbd dddf 9abe 71e1 4dbe a186 733f
000000d0: f357 023e 89c9 dabc a951 753e f4ad de3d
000000e0: 9973 093d 0b83 703e 46cf b2be 7eb9 d73e
000000f0: 515f 9a3f e006 18bc 2364 edbe 37f5 8a3e

red.2.weight f4 [64, 64]
0.31082803 0.58226454 0.43454593 -0.51796776 -0.27858517 0.40864488 0.35150394 0.13505945
0.014951665 0.42269465 -0.3992127 0.5252859 -0.21106946 0.73667365 -1.1136252 -0.39045486
0.03963835 1.0191844 0.13326716 0.08228759 0.822583 0.37608802 0.13059504 -0.34298107
0.57122904 0.32915273 0.46114668 0.45661023 0.26650944 0.72290486 0.16980918 0.6158136
0.32808876 0.15378296 0.73322403 0.50249296 0.7953623 0.8784219 0.36600193 -0.23427144
0.36169243 0.1893645 0.76880246 0.6530886 0.36184856 0.0005568757 0.577443 0.41468596
0.42537934 0.76336175 0.24980308 -0.37780896 0.30170387 0.6324816 0.27842227 0.6081699
0.557387 0.004768699 0.52661794 0.5003331 -0.038084418 0.65905464 0.4906562 0.5209389
0.5488409 0.56675 0.4896635 -0.41227186 -0.24623032 0.320113 0.37774932 0.5389592
0.077015944 0.18037526 -0.78722686 0.4721 -0.028484559 0.8018939 -0.7471564 -0.2093882
0.070250586 0.9704388 0.23236272 0.027759837 0.8647523 0.37120312 0.19042872 -0.3164532
0.54826283 0.18190752 0.41978064 0.71000385 0.21975873 0.71358097 -0.002644583 0.47965273
0.7151131 0.3465737 0.65972143 0.41928518 0.6104763 0.9555271 0.32945094 -0.17081909
0.35504198 0.28468463 0.67303306 0.9832692 0.22656757 -0.14029643 0.32403666 0.59778184
0.90445215 0.66161 0.28714263 -0.22778407 0.1871099 0.32813984 0.06982573 0.5652642
0.5423659 0.016335517 0.31286833 0.6227394 -0.1203225 0.8489 0.47584173 0.17306852
0.47597954 0.5233492 0.6497611 -0.7959928 -0.18352486 0.29095837 0.30142346 0.23521805
0.21219842 0.3071975 -0.5486091 0.6504609 -0.3037801 0.465382 -1.0220357 -0.19439358
0.049199145 1.0775781 0.012761086 0.040440734 0.4847554 0.33783498 0.1448233 -0.21557571
0.5179717 0.4583134 0.3353674 0.27555877 0.16594917 0.7529856 0.11666016 0.71139705
0.35188857 0.08768154 0.73228604 0.30366766 0.9533342 0.77856225 0.28913504 -0.39170787
0.46020433 0.32855827 0.9035479 0.6876448 0.28906718 0.029109938 0.4776571 0.38028395
0.50279236 0.63927764 0.4056774 -0.17731634 0.22388369 0.6241771 0.29912215 0.6585232
0.30672824 0.112913355 0.46055996 0.31375143 0.035691813 0.5530193 0.40616164 0.3082707
0.41874143 0.51629955 0.6789326 -0.29847637 -0.33284512 0.39695856 0.28427622 0.45257464
0.23105818 0.17682745 -0.58594143 0.48936233 -0.2345789 0.6836428 -1.0155536 -0.30476257
0.1033526 0.92761 0.057272695 0.07131159 1.0441161 0.3190628 0.19336843 -0.1873869
0.50746214 0.28283998 0.6146049 0.66018134 0.21010314 0.83019185 0.3279006 0.624851
0.30558425 0.27764326 0.7584468 0.65749305 0.77784646 0.8344435 0.2383587 -0.20915087
0.45369348 0.30840158 0.7526104 0.8086869 0.5705404 -0.14902043 0.31948543 0.6192628
0.7081685 0.7082724 0.4238324 -0.3256216 0.3028373 0.67316437 0.2933959 0.6833802
0.45716953 0.04168193 0.24904478 0.2646669 -0.07880163 0.7854714 0.4612307 0.31582063
00000000: da24 9f3e 4a0f 153f ce7c de3e 8999 04bf
00000010: b7a2 8ebe e739 d13e 53f8 b33e 064d 0a3e
00000020: d4f7 743c 6f6b d83e 9b65 ccbe 2379 063f
00000030: 9822 58be a596 3c3f 458b 8ebf b3e9 c7be
00000040: d35b 223d a274 823f 3077 083e 6586 a83d
00000050: cd94 523f 9c8e c03e b5ba 053e 379b afbe
00000060: 113c 123f b586 a83e 6b1b ec3e d1c8 e93e
00000070: ed73 883e 4b10 393f 75e2 2d3e f6a5 1d3f
00000080: 40fb a73e 4879 1d3e 92b4 3b3f 61a3 003f
00000090: dd9c 4b3f 42e0 603f 9b64 bb3e dae4 6fbe
000000a0: c02f b93e c4e8 413e 3dd0 443f d130 273f
000000b0: 3744 b93e 4cfb 113a 4ed3 133f b851 d43e
000000c0: 52cb d93e ad6b 433f 61cc 7f3e 2d70 c1be
000000d0: ee78 9a3e 50ea 213f 5d8d 8e3e 06b1 1b3f
000000e0: eab0 0e3f bf42 9c3b 6fd0 063f d415 003f
000000f0: 68fe 1bbd ceb7 283f 4a37 fb3e 405c 053f
00000100: d680 0c3f 8716 113f 2db5 fa3e 4c15 d3be
00000110: cd23 7cbe dae5 a33e 5c68 c13e 3bf9 093f
00000120: 89ba 9d3d 4bb4 383e b387 49bf 17b7 f13e
00000130: 7358 e9bc eb48 4d3f a445 3fbf dc69 56be
00000140: 8adf 8f3d ad6e 783f 7ef0 6d3e 9968 e33c
00000150: 6860 5d3f 560e be3e bfff 423e 2706 a2be
00000160: f45a 0c3f f745 3a3e 7ded d63e d0c2 353f
00000170: 6f08 613e 3ead 363f bd50 2dbb 0b95 f53e
00000180: a711 373f 1c72 b13e 81e3 283f 8cac d63e
00000190: 2d48 1c3f 6d9d 743f cbad a83e 33eb 2ebe
000001a0: 10c8 b53e 2fc2 913e e54b 2c3f 88b7 7b3f
000001b0: 5401 683e dea9 0fbe 22e8 a53e 3b08 193f
000001c0: 2d8a 673f 465f 293f 5c04 933e 3a40 69be
000001d0: bd99 3f3e f201 a83e cb00 8f3d 28b5 103f
000001e0: 7ed8 0a3f 10d2 853c 4730 a03e d96b 1f3f
000001f0: a56b f6bd 8351 593f 87a1 f33e e038 313e
00000200: 97b3 f33e 37fa 053f be56 263f 2fc6 4bbf
00000210: f1ed 3bbe 7ff8 943e 2d54 9a3e 00dd 703e
00000220: 8b4a 593e fe48 9d3e a571 0cbf 9b84 263f
00000230: 1189 9bbe 8d46 ee3e 11d2 82bf 1c0f 47be
00000240: 0b85 493d 14ee 893f e013 513c 2fa5 253d
00000250: dc31 f83e b5f8 ac3e 8f4c 143e e1bf 5cbe
00000260: cb99 043f 0ea8 ea3e 47b5 ab3e 0a16 8d3e
00000270: 94ee 293e aac3 403f 86eb ee3d 1e1e 363f
00000280: bd2a b43e 6192 b33d 1977 3b3f 547a 9b3e
00000290: b60d 743f db4f 473f 8209 943e ef8d c8be
000002a0: e79f eb3e ca38 a83e ea4e 673f 7d09 303f
000002b0: 9d00 943e f777 ee3c 798f f43e 94b4 c23e
000002c0: 00b7 003f b3a7 233f f3b4 cf3e 6a92 35be
000002d0: c441 653e 12ca 1f3f 8a26 993e fa94 283f
000002e0: 7c0b 9d3e 1e3f e73d 84ce eb3e 07a4 a03e
000002f0: 9431 123d ac92 0d3f 6bf4 cf3e a8d5 9d3e
00000300: 4765 d63e 352c 043f 87ce 2d3f e5d1 98be
00000310: ad6a aabe 273e cb3e a78c 913e ddb7 e73e
00000320: 849a 6c3e 4112 353e 4200 16bf b38d fa3e
00000330: 7335 70be 3703 2f3f a9fd 81bf d709 9cbe
00000340: 87aa d33d d977 6d3f c696 6a3d d00b 923d
00000350: 99a5 853f 335c a33e 6002 463e 5ae2 3fbe
00000360: 0ae9 013f 67d0 903e bf56 1d3f a501 293f
00000370: 4725 573e 7487 543f 96e2 a73e 3cf6 1f3f
00000380: 8a75 9c3e 4227 8e3e 9229 423f 7751 283f
00000390: f220 473f 179e 553f 4e14 743e a52b 56be
000003a0: 834a e83e d0e6 9d3e 13ab 403f 1b06 4f3f
000003b0: f00e 123f d098 18be 9893 a33e 0288 1e3f
000003c0: 884a 353f 5751 353f 8f00 d93e e0b7 a6be
000003d0: 7e0d 9b3e 8054 2c3f fd37 963e 01f2 2e3f
000003e0: 2012 ea3e acba 2a3d 9805 7f3e 6b82 873e
000003f0: c062 a1bd a714 493f 6e26 ec3e 3eb3 a13e

red.2.bias f4 [64]
-0.29479682 -0.3242161 -0.41823816 -0.2826398 -0.12748186 -0.2839389 0.16693076 -0.2169699
-0.07229108 -0.11568186 0.95250803 -0.31312612 -0.013686058 1.0278614 -0.29847157 0.69193506
-0.24328217 -0.08985204 -0.13292956 -0.24136502 -0.15146874 -0.17453125 -0.1746023 -0.32863215
-0.34863397 -0.14774072 -0.10605687 1.1566033 -0.36831075 -0.16708124 -0.4283648 -0.44957855
-0.13418524 1.2778248 -0.08687772 -0.0046753683 -0.4622735 -0.27726954 0.18256015 -0.1436312
-0.3246345 -0.122022875 0.45123038 -0.014710001 -0.47547492 -0.18980552 -0.3404148 -0.4064518
0.96623504 -0.36876217 -0.21420746 -0.12595156 -0.13208176 -0.02735922 1.3607618 -0.09693469
-0.1510023 -0.26351354 -0.337503 0.024840904 0.2477459 -0.4365679 0.008486363 0.8578556
00000000: 9cef 96be a7ff a5be 5023 d6be 2ab6 90be
00000010: 9b8a 02be 7160 91be e6ef 2a3e 5c2d 5ebe
00000020: 590d 94bd 9cea ecbd 91d7 733f 1152 a0be
00000030: 7d3b 60bc f690 833f 44d1 98be a822 313f
00000040: f61e 79be 5904 b8bd b01e 08be 6428 77be
00000050: 9f1a 1bbe 52b8 32be f2ca 32be 7942 a8be
00000060: 2780 b2be 5849 17be 5834 d9bd 940b 943f
00000070: 3a93 bcbe 5817 2bbe a252 dbbe 292f e6be
00000080: db67 09be c38f a33f f2ec b1bd d533 99bb
00000090: 1daf ecbe 46f6 8dbe 0cf1 3a3e 0f14 13be
000000a0: 7e36 a6be 21e7 f9bd ab07 e73e 3702 71bc
000000b0: 7371 f3be 615c 42be d94a aebe 731a d0be
000000c0: 2e5b 773f 65ce bcbe 3359 5bbe 72f9 00be
000000d0: 7140 07be 7120 e0bc 712d ae3f b285 c6bd
000000e0: 59a0 1abe 3feb 86be 31cd acbe 277f cb3c
000000f0: 1ab1 7d3e d485 dfbe 630a 0b3c 6d9c 5b3f

red.4.weight f4 [4, 64]
-0.5690605 -0.5111554 -0.4175732 -0.46564525 -0.49015144 -0.46371436 -0.2022661 -0.4900068
-0.5568723 0.19204965 2.3613915 -0.36952332 -0.11233586 2.2894437 -0.44138834 0.57301235
-0.53256303 -0.35085824 0.07027337 -0.53317475 -0.6955896 -0.467781 -0.36329052 -0.6791897
-0.47024542 0.11552942 -1.0678594 1.2406914 -0.4636283 -0.5708814 -0.6077441 -0.32044047
-0.514441 1.8813999 0.07662965 0.06025968 -0.66839075 -0.6610511 1.1894177 -0.6415074
-0.48956394 -0.02347791 1.7884858 -0.066191375 -0.45795065 -0.36486128 -0.46991968 -0.58661735
1.3859293 -0.5046108 -0.50186586 0.12298483 -0.5393561 -0.7173578 1.7657495 -0.09308164
-0.5016256 -0.5380786 -0.5366641 1.8836186 0.756222 -0.46799538 -0.39920807 0.6513488
-0.5740363 -0.7581944 -0.62659395 -0.6678278 -0.60931593 -0.63693243 -0.41121116 -0.32285893
-0.3993327 -0.30495426 1.8454657 -0.5455687 -0.106773585 2.6611202 -0.7618627 1.0018271
-0.3231089 -0.11735662 -0.09448316 -0.54875386 -0.8475568 -0.4041964 -0.78558475 -0.6434038
-0.6964687 0.059752513 -0.55496943 1.3465959 -0.66977715 -0.5974544 -0.7497264 -0.96694785
-0.42698598 1.5455248 0.075265005 0.089928575 -0.7886673 -0.7034099 1.4982983 -0.6181913
-0.74136895 0.115269125 2.5370255 -0.041545764 -1.2175167 -0.802166 -1.5026469 -0.37438715
0.7434811 -0.6776812 -0.47177467 0.102282494 -0.51654166 -0.3951737 2.2956061 -0.066848814
-0.5991128 -1.108058 -0.6825041 2.772061 0.038451113 -0.51565933 -0.3533468 0.66531247
-0.5094649 -0.18746248 -0.52681005 -0.37441182 -0.85511297 -0.39631152 -1.2419543 -0.9027924
-0.587097 0.63422716 2.1285367 -0.5219986 -0.04365033 2.1262662 -0.5114269 -0.12067143
-0.64398164 -0.85953736 0.0062230313 -0.5771719 -0.041023284 -0.5493109 -0.7150232 -0.33811393
-0.7428995 -0.0040577366 -0.23646529 0.27463272 -0.59830636 -0.6839213 -0.14051989 -0.179181
-0.7440109 2.0975933 -0.08682218 -0.10004192 -0.2315388 -0.1954903 1.418973 -0.29471502
-0.34700325 0.006472401 0.6756758 0.06268631 -0.06250498 -0.63986593 0.11032897 -0.483397
0.011228554 -0.33541426 -0.7793189 0.010248959 -0.4172793 -0.9631896 1.9305623 0.02019906
-0.6255195 -0.3707623 -0.3593218 0.35101455 1.0074878 -0.58273107 -0.83000946 1.8799876
-0.39055663 -0.5126839 -0.5973464 -0.31634638 -0.27045158 -0.64032304 0.2107294 -0.6576292
-0.55113095 -0.04071682 2.5299242 -0.48544672 0.04925019 2.0052009 -0.59512 0.34945676
-0.7584176 -0.9829621 -0.06893975 -0.4608926 -0.28625932 -0.73859125 -0.45621794 -0.52867573
-0.4971009 -0.063086115 -0.36956394 1.60066 -0.59750646 -0.5817144 -0.52884215 -0.60793394
-0.69284797 1.9738884 -0.012108728 -0.0993699 -0.44546735 -0.41532627 1.2075255 -0.25693262
-0.6156595 0.06156078 2.419442 0.03883575 -0.5296587 -0.4228876 -0.7112564 -0.78925735
1.8447386 -0.51287895 -0.49755144 0.09934278 -0.5906947 0.0018610688 1.5280497 -0.08585086
-0.50898534 -0.8679866 -0.54876035 2.8359625 0.6408348 -0.7014901 -0.82618684 0.48229182
00000000: f3ad 11bf 15db 02bf 28cc d5be 0e69 eebe
00000010: 21f5 fabe f86b edbe d81e 4fbe 2ce2 fabe
00000020: 2f8f 0ebf aaa8 443e 0a21 1740 2932 bdbe
00000030: 5810 e6bd 3f86 1240 a7fd e1be f0b0 123f
00000040: 0d56 08bf b1a3 b3be 7ceb 8f3d 247e 08bf
00000050: 2912 32bf fe80 efbe 3701 babe 60df 2dbf
00000060: 02c4 f0be b09a ec3d 9eaf 88bf face 9e3f
00000070: b060 edbe 4925 12bf 1e95 1bbf c610 a4be
00000080: 68b2 03bf b6d1 f03f 02f0 9c3d dbd2 763d
00000090: a81b 2bbf a53a 29bf d73e 983f d439 24bf
000000a0: 20a8 fabe bf54 c0bc 1aed e43f 588f 87bd
000000b0: 8278 eabe 19cf babe 5099 f0be 8e2c 16bf
000000c0: 2266 b13f 2c2e 01bf 487a 00bf 78df fb3d
000000d0: 3e13 0abf c3a4 37bf 1404 e23f 96a1 bebd
000000e0: 896a 00bf 85bf 09bf d262 09bf 6a1a f13f
000000f0: c497 413f 179d efbe 0065 ccbe ccbe 263f
00000100: 0bf4 12bf 0719 42bf 7668 20bf c3f6 2abf
00000110: 21fc 1bbf 010e 23bf 458a d2be c44d a5be
00000120: 5675 ccbe f722 9cbe 3838 ec3f 64aa 0bbf
00000130: 1cac dabd cb4f 2a40 6f09 43bf df3b 803f
00000140: 886e a5be ab58 f0bd 6380 c1bd 227b 0cbf
00000150: 7cf9 58bf d5f2 cebe 151c 49bf 1db6 24bf
00000160: c64b 32bf 0dbf 743d 7a12 0ebf 415d ac3f
00000170: 8476 2bbf c6f2 18bf 12ee 3fbf e589 77bf
00000180: e89d dabe c2d3 c53f 8a24 9a3d 792c b83d
00000190: 1ae6 49bf ac12 34bf 3dc8 bf3f c941 1ebf
000001a0: 5bca 3dbf 3812 ec3d a05e 2240 e42b 2abd
000001b0: 96d7 9bbf c05a 4dbf bc56 c0bf acaf bfbe
000001c0: c754 3e3f 847c 2dbf 738c f1be 7c79 d13d
000001d0: 133c 04bf 3554 cabe 36eb 1240 08e8 88bd
000001e0: 755f 19bf d8d4 8dbf 97b8 2ebf 7369 3140
000001f0: ea7e 1d3d 4002 04bf dfe9 b4be eb51 2a3f
00000200: 4b6c 02bf 2af6 3fbe 06dd 06bf e8b2 bfbe
00000210: afe8 5abf 58e9 cabe 5cf8 9ebf 671d 67bf
00000220: fd4b 16bf b65c 223f f239 0840 b3a1 05bf
00000230: b0ca 32bd bf14 0840 e0ec 02bf 9522 f7bd
00000240: fbdb 24bf a40a 5cbf 92ea cb3b 8ac1 13bf
00000250: 0808 28bd a49f 0cbf c30b 37bf 451d adbe
00000260: a92e 3ebf c3f6 84bb f523 72be a99c 8c3e
00000270: 9b2a 19bf 7715 2fbf 72e4 0fbe 397b 37be
00000280: 8077 3ebf f83e 0640 d4cf b1bd c7e2 ccbd
00000290: 8218 6dbe 9c2e 48be e8a0 b53f e3e4 96be
000002a0: 69aa b1be 6f16 d43b 17f9 2c3f ae61 803d
000002b0: 9c02 80bd 41ce 23bf 28f4 e13d d07f f7be
000002c0: f8f7 373c 6bbb abbe 7281 47bf 40eb 273c
000002d0: a2a5 d5be 9893 76bf aa1c f73f 8078 a53c
000002e0: 0c22 20bf 8ed4 bdbe 07f9 b7be 2eb8 b33e
000002f0: 5cf5 803f dd2d 15bf 807b 54bf 6fa3 f03f
00000300: 0af7 c7be 413f 03bf b2eb 18bf 27f8 a1be
00000310: a178 8abe 36ec 23bf 73c9 573e 635a 28bf
00000320: eb16 0dbf aec6 26bd 47ea 2140 798c f8be
00000330: 91ba 493d 3655 0040 c959 18bf ffeb b23e
00000340: a827 42bf 67a3 7bbf 4930 8dbd 1dfa ebbe
00000350: 9590 92be 5114 3dbf 6695 e9be 4b57 07bf
00000360: 0284 febe 4b33 81bd 7c37 bdbe 6de2 cc3f
00000370: 2ff6 18bf 3ceb 14bf 3362 07bf 8fa1 1bbf
00000380: 7c5e 31bf 60a8 fc3f b063 46bc 7282 cbbd
00000390: 4c14 e4be a5a5 d4be 3290 9a3f ac8c 83be
000003a0: dc9b 1dbf 2827 7c3d 23d8 1a40 3c12 1f3d
000003b0: b697 07bf b984 d8be e614 36bf c50c 4abf
000003c0: 6520 ec3f 094c 03bf 10bf febe 3a74 cb3d
000003d0: c537 17bf 1bef f33a 2297 c33f 93d2 afbd
000003e0: dd4c 02bf 5f34 5ebf 8f7b 0cbf 6980 3540
000003f0: c00d 243f db94 33bf fb80 53bf f4ee f63e

red.4.bias f4 [4]
0.53770083 0.6486357 0.30611384 0.59643245
00000000: c3a6 093f fd0c 263f f4ba 9c3e ccaf 183f
