agentA2C_Actor_Trained_Model.pth (torch, 22399 bytes, 6 tensors)

fc1.weight f4 [64, 8]
0.26210636 -0.19977933 0.1863888 0.25832835 0.39850077 -0.1254612 -0.2903752 -0.1634979
0.21361855 0.21760626 -0.21442176 0.06659616 0.43653727 0.58881193 0.014056669 -0.19359052
0.3437818 -0.09642432 0.36012968 0.0943893 -0.4299703 -0.510818 0.0014444585 0.34055048
0.3982288 -0.13990945 0.0947008 0.39204237 -0.0037936629 0.12717877 0.2391721 0.15740186
0.20282307 0.15797935 -0.368294 -0.04582765 0.44123888 -0.036978625 0.09462099 0.057473123
-0.28248623 0.26727024 -0.18468498 0.39800018 -0.18297973 -0.34922674 0.41911715 0.118963
0.2915883 0.09712865 -0.05341269 0.09528447 0.023146685 0.082891144 -0.17479618 0.06677422
0.38494042 0.21282552 0.27088246 0.19535685 -0.50056726 -0.18350096 0.07449018 0.33328962
-0.15252618 0.17669675 0.23498075 0.33862203 -0.3487877 -0.10651075 -0.14613664 -0.29168922
-0.20876008 0.39509445 -0.026774013 0.18331419 -0.15185818 -0.19133095 0.0753819 -0.07340173
0.38333663 -0.13340993 0.2336421 -0.1027439 0.27171803 -0.35590726 0.022648314 0.29229268
0.33239564 -0.2810826 -0.06709161 0.487157 -0.28327894 -0.19319108 0.37047926 0.3311133
0.227399 -0.12602359 0.17772713 -0.33069757 -0.4905029 -0.37446722 0.028231846 -0.2371296
-0.3184891 -0.06307618 -0.36481687 0.39545602 0.3228197 0.18428805 0.09212148 0.19117346
-0.27054942 0.08179689 -0.27267438 -0.42957735 0.33980417 0.024792025 0.12177308 0.05699243
0.26992232 0.022980185 -0.14624171 0.28694388 0.15052843 0.07138579 0.23373461 0.41691113
-0.15799403 0.24954027 -0.29987475 -0.26149243 0.44989154 0.08532741 0.08892 -0.20950723
0.10034698 0.03051238 -0.05959764 -0.36956617 0.4182903 0.43322322 -0.26642686 0.011193702
-0.34403932 0.068204306 -0.3881608 -0.16143559 -0.2399299 -0.17685692 0.08701048 -0.037115574
0.09135136 -0.10002885 0.19475184 -0.4935206 -0.49233732 0.038270906 -0.3200008 0.15596592
-0.09883749 -0.10197267 0.09450717 0.48452064 -0.22607751 -0.2637798 0.44688287 0.35764536
0.35996807 -0.27781904 0.0833878 -0.13732354 -0.32094756 -0.067798935 0.15238911 -0.08631693
-0.1864424 0.2508038 0.1785202 0.08864854 -0.61180204 -0.40197197 -0.027624864 -0.3230095
0.13102259 0.19973233 0.27652365 -0.34649196 0.28510985 0.2705759 -0.17868045 0.013663531
-0.30703032 -0.22167279 -0.07519632 0.4885126 0.078856245 0.03956906 0.15730567 0.36940804
-0.024928123 0.39096656 -0.3046865 0.31346554 0.22465105 -0.108050935 0.15949732 -0.12753636
-0.2294204 0.23724352 -0.30251127 -0.19232786 0.4282313 0.17864372 -0.18289448 0.09754708
0.31106693 0.22549352 -0.09363513 0.10457303 -0.09615649 -0.14289284 -0.07022439 -0.34623265
-0.39498338 0.4030997 0.049099453 0.04029105 -0.00455834 -0.16695885 -0.13988172 -0.17604974
0.2644966 -0.24674547 -0.1385923 -0.55685204 -0.39355597 -0.41426405 0.22346088 0.044182412
-0.17755572 -0.16194463 0.24376515 -0.048825074 -0.34485406 -0.28099257 0.33266038 -0.33307236
-0.31247145 -0.07897396 -0.23694345 -0.26119047 -0.35576227 0.10403447 -0.087384745 0.15161908
00000000: ce32 863e f492 4cbe b5dc 3e3e 9d43 843e
00000010: 4b08 cc3e e778 00be 0fac 94be fe6b 27be
00000020: d2be 5a3e 2dd4 5e3e 6191 5bbe 9163 883d
00000030: d081 df3e 61bc 163f f14d 663c 983c 46be
00000040: 2b04 b03e 1d7a c5bd eb62 b83e 2d4f c13d
00000050: 1125 dcbe f8c4 02bf fc53 bd3a a25c ae3e
00000060: a5e4 cb3e 6c44 0fbe 7ef2 c13d c7b9 c83e
00000070: 1a9f 78bb 273b 023e 88e9 743e f42d 213e
00000080: dab0 4f3e 57c5 213e 0891 bcbe c6b5 3bbd
00000090: 10ea e13e e676 17bd a6c8 c13d f068 6b3d
000000a0: 09a2 90be a5d7 883e 0f1e 3dbe aec6 cb3e
000000b0: 0a5f 3bbe d9cd b2be 8696 d63e e0a2 f33d
000000c0: 104b 953e 63eb c63d 44c7 5abd 8124 c33d
000000d0: 1e9e bd3c d5c2 a93d c5fd 32be ecc0 883d
000000e0: e916 c53e efee 593e 1bb1 8a3e a00b 483e
000000f0: 2d25 00bf ade7 3bbe 4f8e 983d f0a4 aa3e
00000100: d32f 1cbe feef 343e cb9e 703e de5f ad3e
00000110: 4d94 b2be 4f22 dabd d8a4 15be 4a58 95be
00000120: 34c5 55be d249 ca3e 2d55 dbbc b7b6 3b3e
00000130: b680 1bbe 43ec 43be d361 9a3d a553 96bd
00000140: b344 c43e 9d9c 08be e03f 6f3e 656b d2bd
00000150: a01e 8b3e 7a39 b6be f588 b93c 63a7 953e
00000160: c32f aa3e 0fea 8fbe 5367 89bd a46c f93e
00000170: f009 91be e2d3 45be 75af bd3e af87 a93e
00000180: 49db 683e 540c 01be 1afe 353e 3151 a9be
00000190: 3223 fbbe 2bba bfbe 7946 e73c 1ad2 72be
000001a0: 0111 a3be 162e 81bd 47c9 babe 3679 ca3e
000001b0: a048 a53e 02b6 3c3e 30aa bc3d fac2 433e
000001c0: 7485 8abe 2185 a73d fa9b 8bbe 90f1 dbbe
000001d0: d0fa ad3e a518 cb3c 2a64 f93d e570 693d
000001e0: 4233 8a3e f140 bc3c 63c0 15be 4fea 923e
000001f0: 2024 1a3e b732 923d 2058 6f3e 6075 d53e
00000200: 30c9 21be 7c87 7f3e 2f89 99be 56e2 85be
00000210: 2f58 e63e 23c0 ae3d b01b b63d 1089 56be
00000220: b882 cd3d 19f5 f93c a81c 74bd c737 bdbe
00000230: 252a d63e 6fcf dd3e 1a69 88be ca65 373c
00000240: ec25 b0be b3ae 8b3d 03bd c6be 5f4f 25be
00000250: 2fb0 75be fb19 35be 8d32 b23d 8006 18bd
00000260: 6c16 bb3d eddb ccbd 076d 473e bbae fcbe
00000270: a313 fcbe f4c1 1c3d 25d7 a3be 88b5 1f3e
00000280: 4f6b cabd 0cd7 d0bd fa8c c13d 1713 f83e
00000290: dd80 67be 250e 87be d5cd e43e 4b1d b73e
000002a0: bc4d b83e 4c3e 8ebe 39c7 aa3d 8b9e 0cbe
000002b0: 3d53 a4be 2bda 8abd e40b 1c3e eec6 b0bd
000002c0: c2ea 3ebe 5b69 803e 00ce 363e 5e8d b53d
000002d0: 0f9f 1cbf 45cf cdbe 8a4d e2bc 8061 a5be
000002e0: c92a 063e a286 4c3e 8294 8d3e 6567 b1be
000002f0: ebf9 913e ed88 8a3e 02f8 36be 01dd 5f3c
00000300: 1433 9dbe 31fe 62be 8700 9abd 531e fa3e
00000310: 627f a13d 2b13 223d bd14 213e 0d23 bd3e
00000320: 1036 ccbc c52c c83e deff 9bbe 8e7e a03e
00000330: ed0a 663e cf49 ddbd 4453 233e e498 02be
00000340: 2eed 6abe f7ef 723e c2e2 9abe 98f1 44be
00000350: 2241 db3e 61ee 363e b148 3bbe c3c6 c73d
00000360: 2a44 9f3e c6e7 663e c6c3 bfbd 622a d63d
00000370: b2ed c4bd 8052 12be ced1 8fbd 6845 b1be
00000380: 433b cabe 1563 ce3e 821c 493d 3a08 253d
00000390: 215e 95bb 43f7 2abe 273d 0fbe 6246 34be
000003a0: 196c 873e d8aa 7cbe 24eb 0dbe db8d 0ebf
000003b0: 2b80 c9be 6b1a d4be eed2 643e 9ef8 343d
000003c0: 2bd1 35be d0d4 25be 929d 793e cdfc 47bd
000003d0: b690 b0be 42de 8fbe 7652 aa3e 7688 aabe
000003e0: 42fc 9fbe 19bd a1bd 4ea1 72be c2ba 85be
000003f0: 7926 b6be 0610 d53d c6f6 b2bd 0842 1b3e

fc1.bias f4 [64]
-0.21161331 0.06945044 0.31862256 0.082233936 0.101044476 0.1142146 -0.3022693 0.35270157
0.14671639 -0.124222934 -0.32388067 0.23032339 0.2761591 0.22592723 0.02583647 -0.22323477
-0.20401324 0.27424267 -0.13719904 0.16908038 -0.15837817 0.07684522 0.0031717466 -0.28972214
0.26192528 0.3163498 0.36161304 -0.3581029 -0.11534378 0.30708957 0.33765975 -0.017620103
-0.16092764 -0.30390137 0.04186966 0.015277957 0.16087922 0.1947134 0.36287853 0.0006444539
-0.16580994 0.025298415 0.04656452 0.08674474 -0.0022701204 -0.16566375 -0.20360537 -0.171736
-0.045037914 0.20300147 -0.31010872 -0.05975729 0.18441814 -0.07541602 -0.028322252 -0.0473528
-0.1589098 0.17478696 -0.3137409 0.14139079 0.2608835 0.0950951 0.38142133 0.081192985
00000000: 29b1 58be 083c 8e3d 7f22 a33e 446a a83d
00000010: 68f0 ce3d 58e9 e93d 0bc3 9abe 4d95 b43e
00000020: d23c 163e 9868 febd b0d3 a5be e5d9 6b3e
00000030: ba64 8d3e 7859 673e 01a7 d33c a897 64be
00000040: d9e8 50be 8969 8c3e e87d 0cbe 6823 2d3e
00000050: e32d 22be 0761 9d3d 14dd 4f3b 7656 94be
00000060: 121b 863e 9af8 a13e 5825 b93e 4359 b7be
00000070: 5c39 ecbd d83a 9d3e bde1 ac3e 0958 90bc
00000080: 37ca 24be f698 9bbe 857f 2b3d 6550 7a3c
00000090: 86bd 243e f362 473e 37cb b93e 92f0 283a
000000a0: 15ca 29be 9f3e cf3c 70ba 3e3d 3aa7 b13d
000000b0: 4dc6 14bb c2a3 29be ed7d 50be 90db 2fbe
000000c0: ad79 38bd 9edf 4f3e 92c6 9ebe 0fc4 74bd
000000d0: 1cd8 3c3e b773 9abd 1104 e8bc 02f5 41bd
000000e0: 40b9 22be 5afb 323e a6a2 a0be bfc8 103e
000000f0: 8692 853e 38c1 c23d a849 c33e 8248 a63d

fc2.weight f4 [64, 64]
0.09686996 -0.082031414 0.19896421 0.3369233 0.14699584 0.056708805 0.0067794216 0.21648927
0.27375752 0.2554954 -0.036472086 0.16333145 -0.09968432 0.12765999 -0.09416633 0.28109884
-0.06485555 -0.14117621 -0.08550538 0.08286888 0.14692578 0.032827694 0.18909723 -0.13574463
0.09746611 -0.038719617 0.020639578 0.036970895 0.040325023 -0.008373739 0.14384665 0.020539848
-0.16650341 0.09791077 0.049844153 0.10524774 -0.042840865 0.16767463 0.22912264 -0.11239174
0.05729889 0.030693106 -0.18774222 0.2814762 -0.054872073 -0.123873875 -0.032642048 0.1458961
-0.10952763 -0.05038933 0.038158886 -0.014740843 -0.098596506 0.23382273 -0.007914906 0.29287738
-0.054972265 -0.2356343 0.14153464 0.13214369 -0.018457877 0.121852264 -0.045810565 0.3024871
-0.09944345 0.04062121 -0.052123614 -0.09044348 -0.02090059 -0.16087672 0.11266333 -0.07743561
-0.15936925 -0.10624998 0.02490454 -0.012871659 0.16833045 -0.030005248 0.21382807 -0.050662637
-0.04319961 0.07932523 0.16833757 0.24273251 -0.0062610134 0.08284624 -0.071823336 0.10378685
-0.076328084 -0.07987029 0.035142276 0.12927212 0.029321978 0.23629165 -1.0599128e-05 0.23031035
-0.0059875846 0.19815369 0.115788214 -0.027908327 0.19370903 0.061079282 0.017283445 0.15751912
-0.011574939 -0.102493845 0.16709095 0.04252322 0.054433793 0.17432031 -0.08171165 -0.051192634
0.15452586 0.24658248 0.10993878 -0.04347691 0.024978407 -0.07960823 0.07497691 -0.13048333
0.03710426 0.25751972 -0.0023959377 -0.17056489 0.10187591 -0.014065501 0.05343895 -0.07626819
-0.010551462 -0.32782787 0.14781713 0.0019436928 -0.075076155 0.13114338 0.07272559 0.050227698
0.05487647 0.16591117 0.175418 0.087811045 0.12435668 -0.20260045 -0.09119061 0.05194985
-0.07192212 0.054958686 -0.027518211 0.04251643 -0.03163953 0.042892165 0.21712819 -0.0077470723
-0.0936445 0.074664995 -0.121130385 -0.08183907 0.09327675 0.18394743 0.18801306 0.01466366
-0.09008289 -0.015902977 0.31757453 -0.12876415 0.0842406 0.050932232 0.032972492 0.0119637
-0.1573498 -0.06639228 -0.06034541 0.120616004 -0.09017908 0.011899403 0.040672116 -0.01337653
0.06709412 -0.04699558 0.09415332 0.15339418 0.05984731 0.018501347 -0.061394803 0.023067193
0.017783217 -0.099708416 0.022113973 0.10794706 -0.17913903 -0.008214855 0.081130825 0.033929747
0.050468586 0.12309544 0.071158215 0.17613521 0.1155054 0.19515161 0.008419829 0.19953549
0.07100468 0.0741653 -0.21138288 0.1260464 -0.09080884 0.22054559 0.019270075 0.22620659
0.03915564 -0.10075058 -0.031383585 -0.24840257 0.16188921 -0.13641395 -0.02958606 -0.051376153
0.13588785 0.24611159 0.0746849 -0.11536665 0.10044103 -0.18424013 0.08720662 0.042615816
-0.031864803 -0.0419454 0.064475276 0.2943069 -0.06595461 0.043358836 0.16628063 -0.16987851
-0.14861953 0.2279599 -0.16454276 0.24058835 -0.036703344 -0.14627603 0.12959819 0.107797675
-0.15922527 -0.04259473 -0.07915837 -0.1691419 0.07711161 0.40633777 -0.23089358 0.28274268
-0.22795907 -0.14846592 0.055482883 0.26314697 0.2518005 0.1919952 -0.119944 0.19959193
00000000: c263 c63d 1600 a8bd 46bd 4b3e 3681 ac3e
00000010: 1486 163e 7e47 683d e925 de3b 5daf 5d3e
00000020: f229 8c3e 4bd0 823e c163 15bd 5c40 273e
00000030: 4b27 ccbd 4db9 023e 47da c0bd 30ec 8f3e
00000040: fdd2 84bd 7f90 10be 721d afbd 29b7 a93d
00000050: b673 163e 5576 063d b4a2 413e a400 0bbe
00000060: 509c c73d 7698 1ebd 5514 a93c cb6e 173d
00000070: da2b 253d 0232 09bc 894c 133e 2f43 a83c
00000080: df7f 2abe 7185 c83d 6229 4c3d 218c d73d
00000090: e779 2fbd e6b2 2b3e 209f 6a3e a42d e6bd
000000a0: 3eb2 6a3d 1c70 fb3c 7f3f 40be a61d 903e
000000b0: 8ac1 60bd 96b1 fdbd abb3 05bd ca65 153e
000000c0: 0650 e0bd 0b65 4ebd 7e4c 1c3d 9483 71bc
000000d0: f7ec c9bd 3a6f 6f3e 86ad 01bc 06f4 953e
000000e0: 992a 61bd 1e4a 71be 75ee 103e ad50 073e
000000f0: f934 97bc ae8d f93d dca3 3bbd 97df 9a3e
00000100: 02a9 cbbd 6d62 263d 927f 55bd 6e3a b9bd
00000110: b737 abbc debc 24be 08bc e63d 9096 9ebd
00000120: b131 23be 9799 d9bd 9b04 cc3c a7e3 52bc
00000130: d15e 2c3e 91cd f5bc bff5 5a3e a083 4fbd
00000140: 13f2 30bd 4475 a23d af60 2c3e df8e 783e
00000150: 3029 cdbb 4aab a93d 1d18 93bd 338e d43d
00000160: e651 9cbd 0993 a3bd 59f1 0f3d e95f 043e
00000170: a534 f03c 70f6 713e e8d2 31b7 7ad6 6b3e
00000180: 8033 c4bb cde8 4a3e 5f22 ed3d 01a0 e4bc
00000190: a95b 463e 452e 7a3d 0396 8d3c b14c 213e
000001a0: d0a4 3dbc 4be8 d1bd e419 2b3e d42c 2e3d
000001b0: f8f5 5e3d 0681 323e 7058 a7bd 5eaf 51bd
000001c0: 073c 1e3e 1e80 7c3e 9527 e13d d814 32bd
000001d0: 849f cc3c a409 a3bd 7f8d 993d 6c9d 05be
000001e0: a3fa 173d a0d9 833e 2a05 1dbb 90a8 2ebe
000001f0: 51a4 d03d fd72 66bc cde2 5a3d 7f32 9cbd
00000200: 0ae0 2cbc 0ed9 a7be 605d 173e 82c3 fe3a
00000210: 87c1 99bd 734a 063e 27f1 943d 8fbb 4d3d
00000220: 26c6 603d 9ee4 293e c7a0 333e 47d6 b33d
00000230: b7ae fe3d 7e76 4fbe 24c2 babd 5ec9 543d
00000240: e84b 93bd 5c1c 613d df6d e1bc b525 2e3d
00000250: 7498 01bd b2af 2f3d da56 5e3e 27db fdbb
00000260: b0c8 bfbd f6e9 983d 3513 f8bd 3e9b a7bd
00000270: e107 bf3d b75c 3c3e 7f86 403e d93f 703c
00000280: 617d b8bd f646 82bc 2199 a23e c0da 03be
00000290: 5686 ac3d 519e 503d 2a0e 073d 6503 443c
000002a0: 4e20 21be adf8 87bd c02c 77bd 8605 f73d
000002b0: cfaf b8bd b7f5 423c ce97 263d 3c29 5bbc
000002c0: a468 893d 707e 40bd 75d3 c03d 5d13 1d3e
000002d0: 7422 753d 2390 973c 1e79 7bbd 69f7 bc3c
000002e0: 1cae 913c ed33 ccbd 5d28 b53c 5913 dd3d
000002f0: 3970 37be 9997 06bc eb27 a63d ebf9 0a3d
00000300: 26b8 4e3d 7619 fc3d 66bb 913d ca5c 343e
00000310: 188e ec3d d3d5 473e 53f3 093c 0853 4c3e
00000320: e76a 913d fae3 973d c174 58be 4f12 013e
00000330: fcf9 b9bd b4d6 613e 47dc 9d3c b3a2 673e
00000340: aa61 203d 5256 cebd 138c 00bd 3e5d 7ebe
00000350: 49c6 253e 19b0 0bbe 775e f2bc cd6f 52bd
00000360: 2f26 0b3e ad04 7c3e 66f4 983d 5a45 ecbd
00000370: 07b4 cd3d 72a9 3cbe 6299 b23d ec8d 2e3d
00000380: ab84 02bd f1ce 2bbd 9d0b 843d 65af 963e
00000390: 3613 87bd 0999 313d 7845 2a3e a2f4 2dbe
000003a0: b82f 18be 526e 693e e67d 28be cb5c 763e
000003b0: 3f56 16bd 62c9 15be 63b5 043e 07c5 dc3d
000003c0: f30b 23be d077 2ebd c91d a2bd 8933 2dbe
000003d0: b1ec 9d3d 810b d03e 5e6f 6cbe a6c3 903e
000003e0: 1a6e 69be 7307 18be 0542 633d 33bb 863e
000003f0: ffeb 803e 649a 443e 33a5 f5bd d461 4c3e

fc2.bias f4 [64]
0.042802315 0.018804515 0.011958123 -0.03288145 0.04543911 0.13467139 0.13505392 0.15076025
-0.13924283 -0.003657907 0.0265509 0.14350827 -0.005524233 0.09926993 0.111194424 0.0964872
-0.08926225 0.07687498 0.097565964 0.021409947 0.160407 0.025593327 -0.10529352 -0.0881192
0.06645472 0.05924964 -0.0694592 0.050695367 -0.024776688 0.0749963 -0.04362366 0.15526855
0.05853535 0.11205712 0.13976991 0.13522147 0.13883878 0.10317873 0.061146688 0.0974001
0.09608002 0.034470066 0.11771542 0.095494375 -0.09243823 0.109214365 0.03423769 0.036746275
0.023331875 -0.0003007814 -0.063781016 0.012733853 0.00904274 0.10221583 0.16541985 0.18015976
0.11281973 -0.045454323 -0.02024263 0.10001137 0.03471586 -0.055067834 -0.06701691 0.09938245
00000000: 7b51 2f3d ed0b 9a3c 01ec 433c b3ae 06bd
00000010: 5c1e 3a3d 4ce7 093e 934b 0a3e e560 1a3e
00000020: ac95 0ebe 7fb9 6fbb 4681 d93c d5f3 123e
00000030: a004 b5bb 084e cb3d e7b9 e33d 159b c53d
00000040: 20cf b6bd a170 9d3d aad0 c73d ea63 af3c
00000050: bc41 243e 19a9 d13c 21a4 d7bd d777 b4bd
00000060: 6a19 883d c0af 723d a040 8ebd f2a5 4f3d
00000070: 7bf8 cabc a997 993d b9ae 32bd b8fe 1e3e
00000080: c3c2 6f3d 347e e53d d81f 0f3e 7f77 0a3e
00000090: c12b 0e3e 5f4f d33d f374 7a3d b479 c73d
000000a0: 9ac5 c43d 7c30 0d3d c814 f13d 8e92 c33d
000000b0: 4150 bdbd c8ab df3d d23c 0c3d 4383 163d
000000c0: 7d22 bf3c 32b2 9db9 9f9f 82bd a7a1 503c
000000d0: 0028 143c 8856 d13d d263 293e cd7b 383e
000000e0: 080e e73d 502e 3abd dfd3 a5bc c3d2 cc3d
000000f0: 3832 0e3d cf8e 61bd 2940 89bd 0789 cb3d

fc3.weight f4 [4, 64]
0.20791283 -0.10403312 0.010439563 0.28054595 -0.15648937 -0.12877202 -0.13741098 0.23610392
0.07378652 -0.2106071 0.09856509 0.18567179 -0.065442055 -0.108483896 -0.18506517 -0.1280925
0.03756054 -0.09576892 -0.1959948 -0.01631464 0.0058948174 -0.16156875 0.07400607 0.11556911
-0.021291323 -0.017973857 -0.042108536 0.19495527 0.29777288 -0.016450636 -0.06471572 0.0023952029
0.09252384 0.17743865 -0.1331836 -0.042090237 -0.08884698 0.059896197 0.1614992 0.11550476
0.041926175 -0.09235779 0.21481413 0.093985125 -0.08057272 -0.035706624 0.046462372 0.28886974
-0.11577872 -0.08276164 0.086006 0.20591117 -0.08774307 -0.07530243 0.27337965 -0.17057526
-0.13794744 -0.15088327 -0.0619563 0.087548144 -0.12525417 0.03148345 0.027189257 0.08123557
0.076012306 0.04922564 0.1233984 -0.00090883696 -0.31473845 -0.24414259 0.21631065 0.20109387
-0.0031728924 -0.11526822 -0.16007611 0.16752374 -0.009946931 -0.01873291 -0.28755462 -0.08306553
-0.034732327 0.09904524 -0.13184507 -0.3171403 0.006119962 -0.31087938 0.008330626 -0.07149278
0.25206605 -0.31873643 0.015943866 0.04269804 -0.10680155 -0.00917085 -0.086564645 0.045187622
-0.29213136 0.13574807 0.008057503 0.21151672 -0.06806486 -0.15794043 0.19907616 0.21903336
-0.058650725 0.03218473 -0.037960622 -0.15968381 -0.15168114 -0.22367832 0.14815208 0.026258219
-0.19476266 0.15403482 0.08622872 0.09697566 0.02887094 0.115000844 0.14042915 0.1060789
-0.04478673 0.12815617 -0.15527149 0.06604221 -0.27837828 -0.21798177 0.060419105 -0.2082459
-0.25626802 0.3075643 -0.007570518 -0.37977508 0.15793425 0.19768704 0.19763763 -0.08697616
0.067286596 0.26647782 -0.118018076 -0.28432533 0.034864105 0.27183223 0.10861522 0.32678047
-0.22706392 -0.092667446 0.27727133 0.21356165 0.13176186 0.06711786 -0.031046996 -0.07201471
-0.089681655 0.05582835 0.08634906 -0.2932341 -0.21543762 0.012652023 0.06651948 0.21052118
-0.11821759 -0.038624514 0.1558651 0.0050910334 0.16910969 0.096834 -0.24433519 -0.09797835
-0.096055195 0.119521245 -0.17243291 -0.20716643 0.14889531 0.22010772 -0.062038574 -0.14443588
0.15751097 0.09219568 0.07623203 -0.19069265 -0.11034715 0.24725004 -0.21535477 0.065301
0.26270622 0.07664312 0.20853423 0.13446796 0.17951553 -0.10639791 -0.0024126868 -0.1732508
-0.1260771 0.02723453 -0.3102049 0.1882387 0.20999156 0.21605165 -0.15526196 -0.26461232
0.051643062 0.14181408 0.23968533 -0.14193884 0.1250861 -0.01699906 0.23176703 -0.09961111
0.080652535 -0.06140643 0.035034787 0.116213776 -0.24413744 0.30379456 -0.09298939 0.053161025
-0.31564045 0.07999847 -0.046182442 0.024421949 0.029827558 -0.096257016 0.114450395 -0.2808614
0.15795071 -0.30801806 -0.24041775 -0.2779444 -0.14862283 0.26718578 -0.082913235 -0.10458205
0.2058766 -0.19832897 0.27927765 0.06554394 -0.14900213 0.19604224 -0.33724236 0.14273812
0.06919098 -0.2618906 -0.013296845 0.18475455 -0.10191256 -0.020181958 -0.037188776 -0.24630147
-0.1374757 -0.23790483 0.2207063 -0.2917592 0.076768026 0.30125126 0.08022725 0.23377945
00000000: 1ae7 543e 510f d5bd b30a 2b3c b8a3 8f3e
00000010: c03e 20be d0dc 03be 77b5 0cbe 3ac5 713e
00000020: 631d 973d 63a9 57be 7edc c93d bf20 3e3e
00000030: 7c06 86bd ce2c debd b981 3dbe ae2a 03be
00000040: 15d9 193d 7f22 c4bd dcb2 48be 48a6 85bc
00000050: 5029 c13b 4772 25be 7f90 973d 7faf ec3d
00000060: 246b aebc e93d 93bc 007a 2cbd 5ba2 473e
00000070: b075 983e 7cc3 86bc ad89 84bd d6f8 1c3b
00000080: 247d bd3d 7ab2 353e 4861 08be d066 2cbd
00000090: 68f5 b5bd b755 753d 0c60 253e c28d ec3d
000000a0: c8ba 2b3d 1526 bdbd 3cf8 5b3e 467b c03d
000000b0: 4f03 a5bd 1c41 12bd 544f 3e3d bce6 933e
000000c0: 651d edbd ef7e a9bd ea23 b03d 61da 523e
000000d0: a4b2 b3bd 2938 9abd 6bf8 8b3e 48ab 2ebe
000000e0: 1842 0dbe 2581 1abe e4c5 7dbd 714c b33d
000000f0: a142 00be caf4 003d 01bc de3c d65e a63d
00000100: 57ac 9b3d d3a0 493d 4db8 fc3d 043f 6eba
00000110: 6625 a1be 8400 7abe 8a80 5d3e 8deb 4d3e
00000120: 4df0 4fbb bf11 ecbd feea 23be 588b 2b3e
00000130: 74f8 22bc c275 99bc 5c3a 93be 431e aabd
00000140: 7c43 0ebd 3bd8 ca3d 6502 07be 3760 a2be
00000150: f689 c83b 952b 9fbe 2e7d 083c cf6a 92bd
00000160: cd0e 813e 6c31 a3be b69c 823c 24e4 2e3d
00000170: c5ba dabd 5541 16bc ce48 b1bd a816 393d
00000180: 3e92 95be 8b01 0b3e 9e03 043c d797 583e
00000190: 9765 8bbd 23bb 21be 9fda 4b3e 484a 603e
000001a0: be3b 70bd 23d4 033d 997c 1bbd 2784 23be
000001b0: 4d52 1bbe ee0b 65be 2eb5 173e 7a1b d73c
000001c0: dd6f 47be 4ebb 1d3e af98 b03d 2d9b c63d
000001d0: c082 ec3c 9085 eb3d a9cc 0f3e e53f d93d
000001e0: 4a72 37bd 5f3b 033e 7dff 1ebe 2341 873d
000001f0: 9987 8ebe 9d36 5fbe 067a 773d 6a3e 55be
00000200: 9035 83be 1179 9d3e 1c12 f8bb e171 c2be
00000210: 84b9 213e 796e 4a3e 8561 4a3e 8f20 b2bd
00000220: 8ecd 893d c86f 883e 76b3 f1bd 1793 91be
00000230: aacd 0e3d 982d 8b3e a871 de3d c54f a73e
00000240: 7283 68be 6ec8 bdbd 82f6 8d3e e8af 5a3e
00000250: 95ec 063e 1775 893d 4556 febc 737c 93bd
00000260: 04ab b7bd 45ac 643d c7d7 b03d c822 96be
00000270: ae9b 5cbe 6e4a 4f3c 5d3b 883d dd92 573e
00000280: 101c f2bd bd34 1ebd 1a9b 1f3e afd2 a63b
00000290: 172b 2d3e e750 c63d 0133 7abe e0a8 c8bd
000002a0: 96b8 c4bd 8ec7 f43d 4192 30be 7023 54be
000002b0: 0378 183e eb63 613e 291c 7ebd 00e7 13be
000002c0: 8e4a 213e 17d1 bc3d 8a1f 9c3d ef44 43be
000002d0: b0fd e1bd 1d2f 7d3e f685 5cbe 88bc 853d
000002e0: 6e81 863e 11f7 9c3d ff89 553e f8b1 093e
000002f0: ebd2 373e 26e7 d9bd 2b1e 1ebb a868 31be
00000300: 5b1a 01be f31a df3c 2dd3 9ebe a5c1 403e
00000310: 0708 573e a53c 5d3e fefc 1ebe 447b 87be
00000320: ad87 533d b637 113e 1270 753e 6a58 11be
00000330: 9216 003e 9d41 8bbc 5654 6d3e e900 ccbd
00000340: 282d a53d 4f85 7bbd a380 0f3d 7d01 ee3d
00000350: 2aff 79be f68a 9b3e 3971 bebd 60bf 593d
00000360: a09b a1be 3dd6 a33d cd29 3dbd 8a10 c83c
00000370: ec58 f43c 6622 c5bd f864 ea3d 11cd 8fbe
00000380: d5bd 213e 8bb4 9dbe 1230 76be ba4e 8ebe
00000390: 9530 18be 93cc 883e 6ace a9bd 1d2f d6bd
000003a0: 51d1 523e c016 4bbe 7bfd 8e3e e73b 863d
000003b0: 0494 18be 4cbf 483e 08ab acbe f129 123e
000003c0: 00b4 8d3d 8616 86be 03db 59bc 4c30 3d3e
000003d0: 88b7 d0bd a254 a5bc 4253 18bd 7436 7cbe
000003e0: 6ec6 0cbe 539d 73be d500 623e 7661 95be
000003f0: 8e38 9d3d 9b3d 9a3e 2f4e a43d e163 6f3e

fc3.bias f4 [4]
0.02335551 -0.05135919 0.04569325 0.04535824
00000000: 0e54 bf3c 045e 52bd d828 3b3d 90c9 393d
